name: "rotation_rnn"
layers {
  bottom: "images"
  top: "ep_conv_5x5_1_0"
  name: "conv_5x5_1_0"
  type: CONVOLUTION
  blobs_lr: 1
  blobs_lr: 2
  weight_decay: 1
  weight_decay: 0
  convolution_param {
    num_output: 64
    pad: 2
    kernel_size: 5
    stride: 1
    weight_filler {
      type: "xavier"
    }
    bias_filler {
      type: "constant"
      value: 0.1
    }
  }
  param: "conv1_w"
  param: "conv1_b"
}
layers {
  bottom: "ep_conv_5x5_1_0"
  top: "ep_conv_5x5_1_0"
  name: "relu_1"
  type: RELU
}
layers {
  bottom: "ep_conv_5x5_1_0"
  top: "ep_maxpool_2x2_2_1"
  top: "mask1"
  name: "maxpool_2x2_2"
  type: POOLING
  pooling_param {
    pool: MAX
    kernel_size: 2
    stride: 2
  }
}
layers {
  bottom: "ep_maxpool_2x2_2_1"
  top: "ep_conv_5x5_1_2"
  name: "conv_5x5_1_2"
  type: CONVOLUTION
  blobs_lr: 1
  blobs_lr: 2
  weight_decay: 1
  weight_decay: 0
  convolution_param {
    num_output: 128
    pad: 2
    kernel_size: 5
    stride: 1
    weight_filler {
      type: "xavier"
    }
    bias_filler {
      type: "constant"
      value: 0.1
    }
  }
  param: "conv2_w"
  param: "conv2_b"
}
layers {
  bottom: "ep_conv_5x5_1_2"
  top: "ep_conv_5x5_1_2"
  name: "relu_3"
  type: RELU
}
layers {
  bottom: "ep_conv_5x5_1_2"
  top: "ep_maxpool_2x2_2_3"
  top: "mask2"
  name: "maxpool_2x2_2"
  type: POOLING
  pooling_param {
    pool: MAX
    kernel_size: 2
    stride: 2
  }
}
layers {
  bottom: "ep_maxpool_2x2_2_3"
  top: "ep_conv_5x5_1_4"
  name: "conv_5x5_1_4"
  type: CONVOLUTION
  blobs_lr: 1
  blobs_lr: 2
  weight_decay: 1
  weight_decay: 0
  convolution_param {
    num_output: 256
    pad: 2
    kernel_size: 5
    stride: 1
    weight_filler {
      type: "xavier"
    }
    bias_filler {
      type: "constant"
      value: 0.1
    }
  }
  param: "conv3_w"
  param: "conv3_b"
}
layers {
  bottom: "ep_conv_5x5_1_4"
  top: "ep_conv_5x5_1_4"
  name: "relu_5"
  type: RELU
}
layers {
  bottom: "ep_conv_5x5_1_4"
  top: "ep_maxpool_2x2_2_5"
  top: "mask3"
  name: "maxpool_2x2_2"
  type: POOLING
  pooling_param {
    pool: MAX
    kernel_size: 2
    stride: 2
  }
}
layers {
  bottom: "ep_maxpool_2x2_2_5"
  top: "ep_inner_product_6"
  name: "inner_product_6"
  type: INNER_PRODUCT
  blobs_lr: 1
  blobs_lr: 2
  weight_decay: 1
  weight_decay: 0
  inner_product_param {
    num_output: 1024
    weight_filler {
      type: "xavier"
    }
    bias_filler {
      type: "constant"
      value: 0.1
    }
  }
  param: "fc1_w"
  param: "fc1_b"
}
layers {
  bottom: "ep_inner_product_6"
  top: "ep_inner_product_6"
  name: "relu_7"
  type: RELU
}
layers {
  bottom: "ep_inner_product_6"
  top: "ep_inner_product_7"
  name: "inner_product_8"
  type: INNER_PRODUCT
  blobs_lr: 1
  blobs_lr: 2
  weight_decay: 1
  weight_decay: 0
  inner_product_param {
    num_output: 1024
    weight_filler {
      type: "xavier"
    }
    bias_filler {
      type: "constant"
      value: 0.1
    }
  }
  param: "fc2_w"
  param: "fc2_b"
}
layers {
  bottom: "ep_inner_product_7"
  top: "ep_relu_8"
  name: "relu_9"
  type: RELU
}
layers {
  bottom: "ep_relu_8"
  top: "ep_split_9"
  top: "ep_split_11"
  name: "split_10"
  type: SPLIT
}
layers {
  bottom: "ep_split_9"
  top: "ep_inner_product_10"
  name: "inner_product_11"
  type: INNER_PRODUCT
  blobs_lr: 1
  blobs_lr: 2
  weight_decay: 1
  weight_decay: 0
  inner_product_param {
    num_output: 512
    weight_filler {
      type: "xavier"
    }
    bias_filler {
      type: "constant"
      value: 0.1
    }
  }
  param: "fc1_id_w"
  param: "fc1_id_b"
}
layers {
  bottom: "ep_inner_product_10"
  top: "ep_inner_product_10"
  name: "relu_12"
  type: RELU
}
layers {
  bottom: "ep_inner_product_10"
  top: "ep_split_15"
  top: "ep_split_40"
  top: "ep_split_65"
  top: "ep_split_90"
  top: "ep_split_115"
  top: "ep_split_140"
  top: "ep_split_165"
  top: "ep_split_190"
  top: "ep_split_215"
  top: "ep_split_240"
  top: "ep_split_265"
  top: "ep_split_290"
  top: "ep_split_315"
  top: "ep_split_340"
  top: "ep_split_365"
  top: "ep_split_390"
  name: "split_13"
  type: SPLIT
}
layers {
  bottom: "ep_split_11"
  top: "ep_inner_product_12"
  name: "inner_product"
  type: INNER_PRODUCT
  blobs_lr: 1
  blobs_lr: 2
  weight_decay: 1
  weight_decay: 0
  inner_product_param {
    num_output: 512
    weight_filler {
      type: "xavier"
    }
    bias_filler {
      type: "constant"
      value: 0.1
    }
  }
  param: "fc1_view_w"
  param: "fc1_view_b"
}
layers {
  bottom: "ep_inner_product_12"
  top: "ep_inner_product_12"
  name: "relu"
  type: RELU
}
layers {
  bottom: "ep_inner_product_12"
  bottom: "rotations0"
  top: "ep_tensor_product_13"
  name: "tensor_product_14"
  type: TENSOR_PRODUCT
  blobs_lr: 1
  blobs_lr: 2
  weight_decay: 1
  weight_decay: 0
  inner_product_param {
    num_output: 512
    weight_filler {
      type: "xavier"
    }
    bias_filler {
      type: "constant"
      value: 0.1
    }
  }
  param: "tensor_view_w"
  param: "tensor_view_b"
}
layers {
  bottom: "ep_tensor_product_13"
  top: "ep_relu_14"
  name: "relu_30"
  type: RELU
}
layers {
  bottom: "ep_relu_14"
  top: "ep_split_16"
  top: "ep_split_37"
  name: "split_46"
  type: SPLIT
}
layers {
  bottom: "ep_split_15"
  bottom: "ep_split_16"
  top: "ep_concat_17"
  name: "concat_62"
  type: CONCAT
  concat_param {
    concat_dim: 1
  }
}
layers {
  bottom: "ep_concat_17"
  top: "ep_inner_product_18"
  name: "inner_product_78"
  type: INNER_PRODUCT
  blobs_lr: 1
  blobs_lr: 2
  weight_decay: 1
  weight_decay: 0
  inner_product_param {
    num_output: 1024
    weight_filler {
      type: "xavier"
    }
    bias_filler {
      type: "constant"
      value: 0.1
    }
  }
  param: "dec_fc1_w"
  param: "dec_fc1_b"
}
layers {
  bottom: "ep_inner_product_18"
  top: "ep_inner_product_18"
  name: "relu_94"
  type: RELU
}
layers {
  bottom: "ep_inner_product_18"
  top: "ep_inner_product_19"
  name: "inner_product_110"
  type: INNER_PRODUCT
  blobs_lr: 1
  blobs_lr: 2
  weight_decay: 1
  weight_decay: 0
  inner_product_param {
    num_output: 1024
    weight_filler {
      type: "xavier"
    }
    bias_filler {
      type: "constant"
      value: 0.1
    }
  }
  param: "dec_fc2_w"
  param: "dec_fc2_b"
}
layers {
  bottom: "ep_inner_product_19"
  top: "ep_relu_20"
  name: "relu_126"
  type: RELU
}
layers {
  bottom: "ep_relu_20"
  top: "ep_split_21"
  top: "ep_split_29"
  name: "split_142"
  type: SPLIT
}
layers {
  bottom: "ep_split_21"
  top: "ep_inner_product_22"
  name: "inner_product_158"
  type: INNER_PRODUCT
  blobs_lr: 1
  blobs_lr: 2
  weight_decay: 1
  weight_decay: 0
  inner_product_param {
    num_output: 16384
    weight_filler {
      type: "xavier"
    }
    bias_filler {
      type: "constant"
      value: 0.1
    }
  }
  param: "dec_img_fc1_w"
  param: "dec_img_fc1_b"
}
layers {
  bottom: "ep_inner_product_22"
  top: "ep_inner_product_22"
  name: "relu_174"
  type: RELU
}
layers {
  bottom: "ep_inner_product_22"
  top: "ep_folding_23"
  name: "folding_190"
  type: FOLDING
  folding_param {
    channels_folded: 256
    height_folded: 8
    width_folded: 8
  }
}
layers {
  bottom: "ep_folding_23"
  bottom: "mask1"
  top: "ep_unpool_2x2_2_24"
  name: "unpool_2x2_2_206"
  type: UNPOOLING
  unpooling_param {
    unpool: MAX
    kernel_size: 2
    stride: 2
  }
}
layers {
  bottom: "ep_unpool_2x2_2_24"
  top: "ep_conv_5x5_1_25"
  name: "conv_5x5_1_222"
  type: CONVOLUTION
  blobs_lr: 1
  blobs_lr: 2
  weight_decay: 1
  weight_decay: 0
  convolution_param {
    num_output: 128
    pad: 2
    kernel_size: 5
    stride: 1
    weight_filler {
      type: "xavier"
    }
    bias_filler {
      type: "constant"
      value: 0.1
    }
  }
  param: "dec_img_conv1_w"
  param: "dec_img_conv1_b"
}
layers {
  bottom: "ep_conv_5x5_1_25"
  top: "ep_conv_5x5_1_25"
  name: "relu_238"
  type: RELU
}
layers {
  bottom: "ep_conv_5x5_1_25"
  bottom: "mask2"
  top: "ep_unpool_2x2_2_26"
  name: "unpool_2x2_2_254"
  type: UNPOOLING
  unpooling_param {
    unpool: MAX
    kernel_size: 2
    stride: 2
  }
}
layers {
  bottom: "ep_unpool_2x2_2_26"
  top: "ep_conv_5x5_1_27"
  name: "conv_5x5_1_270"
  type: CONVOLUTION
  blobs_lr: 1
  blobs_lr: 2
  weight_decay: 1
  weight_decay: 0
  convolution_param {
    num_output: 64
    pad: 2
    kernel_size: 5
    stride: 1
    weight_filler {
      type: "xavier"
    }
    bias_filler {
      type: "constant"
      value: 0.1
    }
  }
  param: "dec_img_conv2_w"
  param: "dec_img_conv2_b"
}
layers {
  bottom: "ep_conv_5x5_1_27"
  top: "ep_conv_5x5_1_27"
  name: "relu_286"
  type: RELU
}
layers {
  bottom: "ep_conv_5x5_1_27"
  bottom: "mask3"
  top: "ep_unpool_2x2_2_28"
  name: "unpool_2x2_2_302"
  type: UNPOOLING
  unpooling_param {
    unpool: MAX
    kernel_size: 2
    stride: 2
  }
}
layers {
  bottom: "ep_unpool_2x2_2_28"
  top: "ep_t0_conv_5x5_1_412"
  name: "t0_conv_5x5_1_318"
  type: CONVOLUTION
  blobs_lr: 1
  blobs_lr: 2
  weight_decay: 1
  weight_decay: 0
  convolution_param {
    num_output: 3
    pad: 2
    kernel_size: 5
    stride: 1
    weight_filler {
      type: "xavier"
    }
    bias_filler {
      type: "constant"
      value: 0.1
    }
  }
  param: "dec_img_conv3_w"
  param: "dec_img_conv3_b"
}
layers {
  bottom: "ep_split_29"
  top: "ep_inner_product_30"
  name: "inner_product_334"
  type: INNER_PRODUCT
  blobs_lr: 1
  blobs_lr: 2
  weight_decay: 1
  weight_decay: 0
  inner_product_param {
    num_output: 8192
    weight_filler {
      type: "xavier"
    }
    bias_filler {
      type: "constant"
      value: 0.1
    }
  }
  param: "dec_mask_fc1_w"
  param: "dec_mask_fc1_b"
}
layers {
  bottom: "ep_inner_product_30"
  top: "ep_inner_product_30"
  name: "relu_350"
  type: RELU
}
layers {
  bottom: "ep_inner_product_30"
  top: "ep_folding_31"
  name: "folding_366"
  type: FOLDING
  folding_param {
    channels_folded: 128
    height_folded: 8
    width_folded: 8
  }
}
layers {
  bottom: "ep_folding_31"
  top: "ep_upsample_32"
  name: "upsample_382"
  type: UPSAMPLING
  upsampling_param {
    kernel_size: 2
  }
}
layers {
  bottom: "ep_upsample_32"
  top: "ep_conv_5x5_1_33"
  name: "conv_5x5_1_398"
  type: CONVOLUTION
  blobs_lr: 1
  blobs_lr: 2
  weight_decay: 1
  weight_decay: 0
  convolution_param {
    num_output: 64
    pad: 2
    kernel_size: 5
    stride: 1
    weight_filler {
      type: "xavier"
    }
    bias_filler {
      type: "constant"
      value: 0.1
    }
  }
  param: "dec_mask_conv1_w"
  param: "dec_mask_conv1_b"
}
layers {
  bottom: "ep_conv_5x5_1_33"
  top: "ep_conv_5x5_1_33"
  name: "relu_414"
  type: RELU
}
layers {
  bottom: "ep_conv_5x5_1_33"
  top: "ep_upsample_34"
  name: "upsample_430"
  type: UPSAMPLING
  upsampling_param {
    kernel_size: 2
  }
}
layers {
  bottom: "ep_upsample_34"
  top: "ep_conv_5x5_1_35"
  name: "conv_5x5_1_446"
  type: CONVOLUTION
  blobs_lr: 1
  blobs_lr: 2
  weight_decay: 1
  weight_decay: 0
  convolution_param {
    num_output: 32
    pad: 2
    kernel_size: 5
    stride: 1
    weight_filler {
      type: "xavier"
    }
    bias_filler {
      type: "constant"
      value: 0.1
    }
  }
  param: "dec_mask_conv2_w"
  param: "dec_mask_conv2_b"
}
layers {
  bottom: "ep_conv_5x5_1_35"
  top: "ep_conv_5x5_1_35"
  name: "relu_462"
  type: RELU
}
layers {
  bottom: "ep_conv_5x5_1_35"
  top: "ep_upsample_36"
  name: "upsample_478"
  type: UPSAMPLING
  upsampling_param {
    kernel_size: 2
  }
}
layers {
  bottom: "ep_upsample_36"
  top: "ep_t0_conv_5x5_1_428"
  name: "t0_conv_5x5_1_494"
  type: CONVOLUTION
  blobs_lr: 1
  blobs_lr: 2
  weight_decay: 1
  weight_decay: 0
  convolution_param {
    num_output: 1
    pad: 2
    kernel_size: 5
    stride: 1
    weight_filler {
      type: "xavier"
    }
    bias_filler {
      type: "constant"
      value: 0.1
    }
  }
  param: "dec_mask_conv3_w"
  param: "dec_mask_conv3_b"
}
layers {
  bottom: "ep_split_37"
  bottom: "rotations1"
  top: "ep_tensor_product_38"
  name: "tensor_product_15"
  type: TENSOR_PRODUCT
  blobs_lr: 1
  blobs_lr: 2
  weight_decay: 1
  weight_decay: 0
  inner_product_param {
    num_output: 512
    weight_filler {
      type: "xavier"
    }
    bias_filler {
      type: "constant"
      value: 0.1
    }
  }
  param: "tensor_view_w"
  param: "tensor_view_b"
}
layers {
  bottom: "ep_tensor_product_38"
  top: "ep_relu_39"
  name: "relu_31"
  type: RELU
}
layers {
  bottom: "ep_relu_39"
  top: "ep_split_41"
  top: "ep_split_62"
  name: "split_47"
  type: SPLIT
}
layers {
  bottom: "ep_split_40"
  bottom: "ep_split_41"
  top: "ep_concat_42"
  name: "concat_63"
  type: CONCAT
  concat_param {
    concat_dim: 1
  }
}
layers {
  bottom: "ep_concat_42"
  top: "ep_inner_product_43"
  name: "inner_product_79"
  type: INNER_PRODUCT
  blobs_lr: 1
  blobs_lr: 2
  weight_decay: 1
  weight_decay: 0
  inner_product_param {
    num_output: 1024
    weight_filler {
      type: "xavier"
    }
    bias_filler {
      type: "constant"
      value: 0.1
    }
  }
  param: "dec_fc1_w"
  param: "dec_fc1_b"
}
layers {
  bottom: "ep_inner_product_43"
  top: "ep_inner_product_43"
  name: "relu_95"
  type: RELU
}
layers {
  bottom: "ep_inner_product_43"
  top: "ep_inner_product_44"
  name: "inner_product_111"
  type: INNER_PRODUCT
  blobs_lr: 1
  blobs_lr: 2
  weight_decay: 1
  weight_decay: 0
  inner_product_param {
    num_output: 1024
    weight_filler {
      type: "xavier"
    }
    bias_filler {
      type: "constant"
      value: 0.1
    }
  }
  param: "dec_fc2_w"
  param: "dec_fc2_b"
}
layers {
  bottom: "ep_inner_product_44"
  top: "ep_relu_45"
  name: "relu_127"
  type: RELU
}
layers {
  bottom: "ep_relu_45"
  top: "ep_split_46"
  top: "ep_split_54"
  name: "split_143"
  type: SPLIT
}
layers {
  bottom: "ep_split_46"
  top: "ep_inner_product_47"
  name: "inner_product_159"
  type: INNER_PRODUCT
  blobs_lr: 1
  blobs_lr: 2
  weight_decay: 1
  weight_decay: 0
  inner_product_param {
    num_output: 16384
    weight_filler {
      type: "xavier"
    }
    bias_filler {
      type: "constant"
      value: 0.1
    }
  }
  param: "dec_img_fc1_w"
  param: "dec_img_fc1_b"
}
layers {
  bottom: "ep_inner_product_47"
  top: "ep_inner_product_47"
  name: "relu_175"
  type: RELU
}
layers {
  bottom: "ep_inner_product_47"
  top: "ep_folding_48"
  name: "folding_191"
  type: FOLDING
  folding_param {
    channels_folded: 256
    height_folded: 8
    width_folded: 8
  }
}
layers {
  bottom: "ep_folding_48"
  bottom: "mask1"
  top: "ep_unpool_2x2_2_49"
  name: "unpool_2x2_2_207"
  type: UNPOOLING
  unpooling_param {
    unpool: MAX
    kernel_size: 2
    stride: 2
  }
}
layers {
  bottom: "ep_unpool_2x2_2_49"
  top: "ep_conv_5x5_1_50"
  name: "conv_5x5_1_223"
  type: CONVOLUTION
  blobs_lr: 1
  blobs_lr: 2
  weight_decay: 1
  weight_decay: 0
  convolution_param {
    num_output: 128
    pad: 2
    kernel_size: 5
    stride: 1
    weight_filler {
      type: "xavier"
    }
    bias_filler {
      type: "constant"
      value: 0.1
    }
  }
  param: "dec_img_conv1_w"
  param: "dec_img_conv1_b"
}
layers {
  bottom: "ep_conv_5x5_1_50"
  top: "ep_conv_5x5_1_50"
  name: "relu_239"
  type: RELU
}
layers {
  bottom: "ep_conv_5x5_1_50"
  bottom: "mask2"
  top: "ep_unpool_2x2_2_51"
  name: "unpool_2x2_2_255"
  type: UNPOOLING
  unpooling_param {
    unpool: MAX
    kernel_size: 2
    stride: 2
  }
}
layers {
  bottom: "ep_unpool_2x2_2_51"
  top: "ep_conv_5x5_1_52"
  name: "conv_5x5_1_271"
  type: CONVOLUTION
  blobs_lr: 1
  blobs_lr: 2
  weight_decay: 1
  weight_decay: 0
  convolution_param {
    num_output: 64
    pad: 2
    kernel_size: 5
    stride: 1
    weight_filler {
      type: "xavier"
    }
    bias_filler {
      type: "constant"
      value: 0.1
    }
  }
  param: "dec_img_conv2_w"
  param: "dec_img_conv2_b"
}
layers {
  bottom: "ep_conv_5x5_1_52"
  top: "ep_conv_5x5_1_52"
  name: "relu_287"
  type: RELU
}
layers {
  bottom: "ep_conv_5x5_1_52"
  bottom: "mask3"
  top: "ep_unpool_2x2_2_53"
  name: "unpool_2x2_2_303"
  type: UNPOOLING
  unpooling_param {
    unpool: MAX
    kernel_size: 2
    stride: 2
  }
}
layers {
  bottom: "ep_unpool_2x2_2_53"
  top: "ep_t1_conv_5x5_1_413"
  name: "t1_conv_5x5_1_319"
  type: CONVOLUTION
  blobs_lr: 1
  blobs_lr: 2
  weight_decay: 1
  weight_decay: 0
  convolution_param {
    num_output: 3
    pad: 2
    kernel_size: 5
    stride: 1
    weight_filler {
      type: "xavier"
    }
    bias_filler {
      type: "constant"
      value: 0.1
    }
  }
  param: "dec_img_conv3_w"
  param: "dec_img_conv3_b"
}
layers {
  bottom: "ep_split_54"
  top: "ep_inner_product_55"
  name: "inner_product_335"
  type: INNER_PRODUCT
  blobs_lr: 1
  blobs_lr: 2
  weight_decay: 1
  weight_decay: 0
  inner_product_param {
    num_output: 8192
    weight_filler {
      type: "xavier"
    }
    bias_filler {
      type: "constant"
      value: 0.1
    }
  }
  param: "dec_mask_fc1_w"
  param: "dec_mask_fc1_b"
}
layers {
  bottom: "ep_inner_product_55"
  top: "ep_inner_product_55"
  name: "relu_351"
  type: RELU
}
layers {
  bottom: "ep_inner_product_55"
  top: "ep_folding_56"
  name: "folding_367"
  type: FOLDING
  folding_param {
    channels_folded: 128
    height_folded: 8
    width_folded: 8
  }
}
layers {
  bottom: "ep_folding_56"
  top: "ep_upsample_57"
  name: "upsample_383"
  type: UPSAMPLING
  upsampling_param {
    kernel_size: 2
  }
}
layers {
  bottom: "ep_upsample_57"
  top: "ep_conv_5x5_1_58"
  name: "conv_5x5_1_399"
  type: CONVOLUTION
  blobs_lr: 1
  blobs_lr: 2
  weight_decay: 1
  weight_decay: 0
  convolution_param {
    num_output: 64
    pad: 2
    kernel_size: 5
    stride: 1
    weight_filler {
      type: "xavier"
    }
    bias_filler {
      type: "constant"
      value: 0.1
    }
  }
  param: "dec_mask_conv1_w"
  param: "dec_mask_conv1_b"
}
layers {
  bottom: "ep_conv_5x5_1_58"
  top: "ep_conv_5x5_1_58"
  name: "relu_415"
  type: RELU
}
layers {
  bottom: "ep_conv_5x5_1_58"
  top: "ep_upsample_59"
  name: "upsample_431"
  type: UPSAMPLING
  upsampling_param {
    kernel_size: 2
  }
}
layers {
  bottom: "ep_upsample_59"
  top: "ep_conv_5x5_1_60"
  name: "conv_5x5_1_447"
  type: CONVOLUTION
  blobs_lr: 1
  blobs_lr: 2
  weight_decay: 1
  weight_decay: 0
  convolution_param {
    num_output: 32
    pad: 2
    kernel_size: 5
    stride: 1
    weight_filler {
      type: "xavier"
    }
    bias_filler {
      type: "constant"
      value: 0.1
    }
  }
  param: "dec_mask_conv2_w"
  param: "dec_mask_conv2_b"
}
layers {
  bottom: "ep_conv_5x5_1_60"
  top: "ep_conv_5x5_1_60"
  name: "relu_463"
  type: RELU
}
layers {
  bottom: "ep_conv_5x5_1_60"
  top: "ep_upsample_61"
  name: "upsample_479"
  type: UPSAMPLING
  upsampling_param {
    kernel_size: 2
  }
}
layers {
  bottom: "ep_upsample_61"
  top: "ep_t1_conv_5x5_1_429"
  name: "t1_conv_5x5_1_495"
  type: CONVOLUTION
  blobs_lr: 1
  blobs_lr: 2
  weight_decay: 1
  weight_decay: 0
  convolution_param {
    num_output: 1
    pad: 2
    kernel_size: 5
    stride: 1
    weight_filler {
      type: "xavier"
    }
    bias_filler {
      type: "constant"
      value: 0.1
    }
  }
  param: "dec_mask_conv3_w"
  param: "dec_mask_conv3_b"
}
layers {
  bottom: "ep_split_62"
  bottom: "rotations2"
  top: "ep_tensor_product_63"
  name: "tensor_product_16"
  type: TENSOR_PRODUCT
  blobs_lr: 1
  blobs_lr: 2
  weight_decay: 1
  weight_decay: 0
  inner_product_param {
    num_output: 512
    weight_filler {
      type: "xavier"
    }
    bias_filler {
      type: "constant"
      value: 0.1
    }
  }
  param: "tensor_view_w"
  param: "tensor_view_b"
}
layers {
  bottom: "ep_tensor_product_63"
  top: "ep_relu_64"
  name: "relu_32"
  type: RELU
}
layers {
  bottom: "ep_relu_64"
  top: "ep_split_66"
  top: "ep_split_87"
  name: "split_48"
  type: SPLIT
}
layers {
  bottom: "ep_split_65"
  bottom: "ep_split_66"
  top: "ep_concat_67"
  name: "concat_64"
  type: CONCAT
  concat_param {
    concat_dim: 1
  }
}
layers {
  bottom: "ep_concat_67"
  top: "ep_inner_product_68"
  name: "inner_product_80"
  type: INNER_PRODUCT
  blobs_lr: 1
  blobs_lr: 2
  weight_decay: 1
  weight_decay: 0
  inner_product_param {
    num_output: 1024
    weight_filler {
      type: "xavier"
    }
    bias_filler {
      type: "constant"
      value: 0.1
    }
  }
  param: "dec_fc1_w"
  param: "dec_fc1_b"
}
layers {
  bottom: "ep_inner_product_68"
  top: "ep_inner_product_68"
  name: "relu_96"
  type: RELU
}
layers {
  bottom: "ep_inner_product_68"
  top: "ep_inner_product_69"
  name: "inner_product_112"
  type: INNER_PRODUCT
  blobs_lr: 1
  blobs_lr: 2
  weight_decay: 1
  weight_decay: 0
  inner_product_param {
    num_output: 1024
    weight_filler {
      type: "xavier"
    }
    bias_filler {
      type: "constant"
      value: 0.1
    }
  }
  param: "dec_fc2_w"
  param: "dec_fc2_b"
}
layers {
  bottom: "ep_inner_product_69"
  top: "ep_relu_70"
  name: "relu_128"
  type: RELU
}
layers {
  bottom: "ep_relu_70"
  top: "ep_split_71"
  top: "ep_split_79"
  name: "split_144"
  type: SPLIT
}
layers {
  bottom: "ep_split_71"
  top: "ep_inner_product_72"
  name: "inner_product_160"
  type: INNER_PRODUCT
  blobs_lr: 1
  blobs_lr: 2
  weight_decay: 1
  weight_decay: 0
  inner_product_param {
    num_output: 16384
    weight_filler {
      type: "xavier"
    }
    bias_filler {
      type: "constant"
      value: 0.1
    }
  }
  param: "dec_img_fc1_w"
  param: "dec_img_fc1_b"
}
layers {
  bottom: "ep_inner_product_72"
  top: "ep_inner_product_72"
  name: "relu_176"
  type: RELU
}
layers {
  bottom: "ep_inner_product_72"
  top: "ep_folding_73"
  name: "folding_192"
  type: FOLDING
  folding_param {
    channels_folded: 256
    height_folded: 8
    width_folded: 8
  }
}
layers {
  bottom: "ep_folding_73"
  bottom: "mask1"
  top: "ep_unpool_2x2_2_74"
  name: "unpool_2x2_2_208"
  type: UNPOOLING
  unpooling_param {
    unpool: MAX
    kernel_size: 2
    stride: 2
  }
}
layers {
  bottom: "ep_unpool_2x2_2_74"
  top: "ep_conv_5x5_1_75"
  name: "conv_5x5_1_224"
  type: CONVOLUTION
  blobs_lr: 1
  blobs_lr: 2
  weight_decay: 1
  weight_decay: 0
  convolution_param {
    num_output: 128
    pad: 2
    kernel_size: 5
    stride: 1
    weight_filler {
      type: "xavier"
    }
    bias_filler {
      type: "constant"
      value: 0.1
    }
  }
  param: "dec_img_conv1_w"
  param: "dec_img_conv1_b"
}
layers {
  bottom: "ep_conv_5x5_1_75"
  top: "ep_conv_5x5_1_75"
  name: "relu_240"
  type: RELU
}
layers {
  bottom: "ep_conv_5x5_1_75"
  bottom: "mask2"
  top: "ep_unpool_2x2_2_76"
  name: "unpool_2x2_2_256"
  type: UNPOOLING
  unpooling_param {
    unpool: MAX
    kernel_size: 2
    stride: 2
  }
}
layers {
  bottom: "ep_unpool_2x2_2_76"
  top: "ep_conv_5x5_1_77"
  name: "conv_5x5_1_272"
  type: CONVOLUTION
  blobs_lr: 1
  blobs_lr: 2
  weight_decay: 1
  weight_decay: 0
  convolution_param {
    num_output: 64
    pad: 2
    kernel_size: 5
    stride: 1
    weight_filler {
      type: "xavier"
    }
    bias_filler {
      type: "constant"
      value: 0.1
    }
  }
  param: "dec_img_conv2_w"
  param: "dec_img_conv2_b"
}
layers {
  bottom: "ep_conv_5x5_1_77"
  top: "ep_conv_5x5_1_77"
  name: "relu_288"
  type: RELU
}
layers {
  bottom: "ep_conv_5x5_1_77"
  bottom: "mask3"
  top: "ep_unpool_2x2_2_78"
  name: "unpool_2x2_2_304"
  type: UNPOOLING
  unpooling_param {
    unpool: MAX
    kernel_size: 2
    stride: 2
  }
}
layers {
  bottom: "ep_unpool_2x2_2_78"
  top: "ep_t2_conv_5x5_1_414"
  name: "t2_conv_5x5_1_320"
  type: CONVOLUTION
  blobs_lr: 1
  blobs_lr: 2
  weight_decay: 1
  weight_decay: 0
  convolution_param {
    num_output: 3
    pad: 2
    kernel_size: 5
    stride: 1
    weight_filler {
      type: "xavier"
    }
    bias_filler {
      type: "constant"
      value: 0.1
    }
  }
  param: "dec_img_conv3_w"
  param: "dec_img_conv3_b"
}
layers {
  bottom: "ep_split_79"
  top: "ep_inner_product_80"
  name: "inner_product_336"
  type: INNER_PRODUCT
  blobs_lr: 1
  blobs_lr: 2
  weight_decay: 1
  weight_decay: 0
  inner_product_param {
    num_output: 8192
    weight_filler {
      type: "xavier"
    }
    bias_filler {
      type: "constant"
      value: 0.1
    }
  }
  param: "dec_mask_fc1_w"
  param: "dec_mask_fc1_b"
}
layers {
  bottom: "ep_inner_product_80"
  top: "ep_inner_product_80"
  name: "relu_352"
  type: RELU
}
layers {
  bottom: "ep_inner_product_80"
  top: "ep_folding_81"
  name: "folding_368"
  type: FOLDING
  folding_param {
    channels_folded: 128
    height_folded: 8
    width_folded: 8
  }
}
layers {
  bottom: "ep_folding_81"
  top: "ep_upsample_82"
  name: "upsample_384"
  type: UPSAMPLING
  upsampling_param {
    kernel_size: 2
  }
}
layers {
  bottom: "ep_upsample_82"
  top: "ep_conv_5x5_1_83"
  name: "conv_5x5_1_400"
  type: CONVOLUTION
  blobs_lr: 1
  blobs_lr: 2
  weight_decay: 1
  weight_decay: 0
  convolution_param {
    num_output: 64
    pad: 2
    kernel_size: 5
    stride: 1
    weight_filler {
      type: "xavier"
    }
    bias_filler {
      type: "constant"
      value: 0.1
    }
  }
  param: "dec_mask_conv1_w"
  param: "dec_mask_conv1_b"
}
layers {
  bottom: "ep_conv_5x5_1_83"
  top: "ep_conv_5x5_1_83"
  name: "relu_416"
  type: RELU
}
layers {
  bottom: "ep_conv_5x5_1_83"
  top: "ep_upsample_84"
  name: "upsample_432"
  type: UPSAMPLING
  upsampling_param {
    kernel_size: 2
  }
}
layers {
  bottom: "ep_upsample_84"
  top: "ep_conv_5x5_1_85"
  name: "conv_5x5_1_448"
  type: CONVOLUTION
  blobs_lr: 1
  blobs_lr: 2
  weight_decay: 1
  weight_decay: 0
  convolution_param {
    num_output: 32
    pad: 2
    kernel_size: 5
    stride: 1
    weight_filler {
      type: "xavier"
    }
    bias_filler {
      type: "constant"
      value: 0.1
    }
  }
  param: "dec_mask_conv2_w"
  param: "dec_mask_conv2_b"
}
layers {
  bottom: "ep_conv_5x5_1_85"
  top: "ep_conv_5x5_1_85"
  name: "relu_464"
  type: RELU
}
layers {
  bottom: "ep_conv_5x5_1_85"
  top: "ep_upsample_86"
  name: "upsample_480"
  type: UPSAMPLING
  upsampling_param {
    kernel_size: 2
  }
}
layers {
  bottom: "ep_upsample_86"
  top: "ep_t2_conv_5x5_1_430"
  name: "t2_conv_5x5_1_496"
  type: CONVOLUTION
  blobs_lr: 1
  blobs_lr: 2
  weight_decay: 1
  weight_decay: 0
  convolution_param {
    num_output: 1
    pad: 2
    kernel_size: 5
    stride: 1
    weight_filler {
      type: "xavier"
    }
    bias_filler {
      type: "constant"
      value: 0.1
    }
  }
  param: "dec_mask_conv3_w"
  param: "dec_mask_conv3_b"
}
layers {
  bottom: "ep_split_87"
  bottom: "rotations3"
  top: "ep_tensor_product_88"
  name: "tensor_product_17"
  type: TENSOR_PRODUCT
  blobs_lr: 1
  blobs_lr: 2
  weight_decay: 1
  weight_decay: 0
  inner_product_param {
    num_output: 512
    weight_filler {
      type: "xavier"
    }
    bias_filler {
      type: "constant"
      value: 0.1
    }
  }
  param: "tensor_view_w"
  param: "tensor_view_b"
}
layers {
  bottom: "ep_tensor_product_88"
  top: "ep_relu_89"
  name: "relu_33"
  type: RELU
}
layers {
  bottom: "ep_relu_89"
  top: "ep_split_91"
  top: "ep_split_112"
  name: "split_49"
  type: SPLIT
}
layers {
  bottom: "ep_split_90"
  bottom: "ep_split_91"
  top: "ep_concat_92"
  name: "concat_65"
  type: CONCAT
  concat_param {
    concat_dim: 1
  }
}
layers {
  bottom: "ep_concat_92"
  top: "ep_inner_product_93"
  name: "inner_product_81"
  type: INNER_PRODUCT
  blobs_lr: 1
  blobs_lr: 2
  weight_decay: 1
  weight_decay: 0
  inner_product_param {
    num_output: 1024
    weight_filler {
      type: "xavier"
    }
    bias_filler {
      type: "constant"
      value: 0.1
    }
  }
  param: "dec_fc1_w"
  param: "dec_fc1_b"
}
layers {
  bottom: "ep_inner_product_93"
  top: "ep_inner_product_93"
  name: "relu_97"
  type: RELU
}
layers {
  bottom: "ep_inner_product_93"
  top: "ep_inner_product_94"
  name: "inner_product_113"
  type: INNER_PRODUCT
  blobs_lr: 1
  blobs_lr: 2
  weight_decay: 1
  weight_decay: 0
  inner_product_param {
    num_output: 1024
    weight_filler {
      type: "xavier"
    }
    bias_filler {
      type: "constant"
      value: 0.1
    }
  }
  param: "dec_fc2_w"
  param: "dec_fc2_b"
}
layers {
  bottom: "ep_inner_product_94"
  top: "ep_relu_95"
  name: "relu_129"
  type: RELU
}
layers {
  bottom: "ep_relu_95"
  top: "ep_split_96"
  top: "ep_split_104"
  name: "split_145"
  type: SPLIT
}
layers {
  bottom: "ep_split_96"
  top: "ep_inner_product_97"
  name: "inner_product_161"
  type: INNER_PRODUCT
  blobs_lr: 1
  blobs_lr: 2
  weight_decay: 1
  weight_decay: 0
  inner_product_param {
    num_output: 16384
    weight_filler {
      type: "xavier"
    }
    bias_filler {
      type: "constant"
      value: 0.1
    }
  }
  param: "dec_img_fc1_w"
  param: "dec_img_fc1_b"
}
layers {
  bottom: "ep_inner_product_97"
  top: "ep_inner_product_97"
  name: "relu_177"
  type: RELU
}
layers {
  bottom: "ep_inner_product_97"
  top: "ep_folding_98"
  name: "folding_193"
  type: FOLDING
  folding_param {
    channels_folded: 256
    height_folded: 8
    width_folded: 8
  }
}
layers {
  bottom: "ep_folding_98"
  bottom: "mask1"
  top: "ep_unpool_2x2_2_99"
  name: "unpool_2x2_2_209"
  type: UNPOOLING
  unpooling_param {
    unpool: MAX
    kernel_size: 2
    stride: 2
  }
}
layers {
  bottom: "ep_unpool_2x2_2_99"
  top: "ep_conv_5x5_1_100"
  name: "conv_5x5_1_225"
  type: CONVOLUTION
  blobs_lr: 1
  blobs_lr: 2
  weight_decay: 1
  weight_decay: 0
  convolution_param {
    num_output: 128
    pad: 2
    kernel_size: 5
    stride: 1
    weight_filler {
      type: "xavier"
    }
    bias_filler {
      type: "constant"
      value: 0.1
    }
  }
  param: "dec_img_conv1_w"
  param: "dec_img_conv1_b"
}
layers {
  bottom: "ep_conv_5x5_1_100"
  top: "ep_conv_5x5_1_100"
  name: "relu_241"
  type: RELU
}
layers {
  bottom: "ep_conv_5x5_1_100"
  bottom: "mask2"
  top: "ep_unpool_2x2_2_101"
  name: "unpool_2x2_2_257"
  type: UNPOOLING
  unpooling_param {
    unpool: MAX
    kernel_size: 2
    stride: 2
  }
}
layers {
  bottom: "ep_unpool_2x2_2_101"
  top: "ep_conv_5x5_1_102"
  name: "conv_5x5_1_273"
  type: CONVOLUTION
  blobs_lr: 1
  blobs_lr: 2
  weight_decay: 1
  weight_decay: 0
  convolution_param {
    num_output: 64
    pad: 2
    kernel_size: 5
    stride: 1
    weight_filler {
      type: "xavier"
    }
    bias_filler {
      type: "constant"
      value: 0.1
    }
  }
  param: "dec_img_conv2_w"
  param: "dec_img_conv2_b"
}
layers {
  bottom: "ep_conv_5x5_1_102"
  top: "ep_conv_5x5_1_102"
  name: "relu_289"
  type: RELU
}
layers {
  bottom: "ep_conv_5x5_1_102"
  bottom: "mask3"
  top: "ep_unpool_2x2_2_103"
  name: "unpool_2x2_2_305"
  type: UNPOOLING
  unpooling_param {
    unpool: MAX
    kernel_size: 2
    stride: 2
  }
}
layers {
  bottom: "ep_unpool_2x2_2_103"
  top: "ep_t3_conv_5x5_1_415"
  name: "t3_conv_5x5_1_321"
  type: CONVOLUTION
  blobs_lr: 1
  blobs_lr: 2
  weight_decay: 1
  weight_decay: 0
  convolution_param {
    num_output: 3
    pad: 2
    kernel_size: 5
    stride: 1
    weight_filler {
      type: "xavier"
    }
    bias_filler {
      type: "constant"
      value: 0.1
    }
  }
  param: "dec_img_conv3_w"
  param: "dec_img_conv3_b"
}
layers {
  bottom: "ep_split_104"
  top: "ep_inner_product_105"
  name: "inner_product_337"
  type: INNER_PRODUCT
  blobs_lr: 1
  blobs_lr: 2
  weight_decay: 1
  weight_decay: 0
  inner_product_param {
    num_output: 8192
    weight_filler {
      type: "xavier"
    }
    bias_filler {
      type: "constant"
      value: 0.1
    }
  }
  param: "dec_mask_fc1_w"
  param: "dec_mask_fc1_b"
}
layers {
  bottom: "ep_inner_product_105"
  top: "ep_inner_product_105"
  name: "relu_353"
  type: RELU
}
layers {
  bottom: "ep_inner_product_105"
  top: "ep_folding_106"
  name: "folding_369"
  type: FOLDING
  folding_param {
    channels_folded: 128
    height_folded: 8
    width_folded: 8
  }
}
layers {
  bottom: "ep_folding_106"
  top: "ep_upsample_107"
  name: "upsample_385"
  type: UPSAMPLING
  upsampling_param {
    kernel_size: 2
  }
}
layers {
  bottom: "ep_upsample_107"
  top: "ep_conv_5x5_1_108"
  name: "conv_5x5_1_401"
  type: CONVOLUTION
  blobs_lr: 1
  blobs_lr: 2
  weight_decay: 1
  weight_decay: 0
  convolution_param {
    num_output: 64
    pad: 2
    kernel_size: 5
    stride: 1
    weight_filler {
      type: "xavier"
    }
    bias_filler {
      type: "constant"
      value: 0.1
    }
  }
  param: "dec_mask_conv1_w"
  param: "dec_mask_conv1_b"
}
layers {
  bottom: "ep_conv_5x5_1_108"
  top: "ep_conv_5x5_1_108"
  name: "relu_417"
  type: RELU
}
layers {
  bottom: "ep_conv_5x5_1_108"
  top: "ep_upsample_109"
  name: "upsample_433"
  type: UPSAMPLING
  upsampling_param {
    kernel_size: 2
  }
}
layers {
  bottom: "ep_upsample_109"
  top: "ep_conv_5x5_1_110"
  name: "conv_5x5_1_449"
  type: CONVOLUTION
  blobs_lr: 1
  blobs_lr: 2
  weight_decay: 1
  weight_decay: 0
  convolution_param {
    num_output: 32
    pad: 2
    kernel_size: 5
    stride: 1
    weight_filler {
      type: "xavier"
    }
    bias_filler {
      type: "constant"
      value: 0.1
    }
  }
  param: "dec_mask_conv2_w"
  param: "dec_mask_conv2_b"
}
layers {
  bottom: "ep_conv_5x5_1_110"
  top: "ep_conv_5x5_1_110"
  name: "relu_465"
  type: RELU
}
layers {
  bottom: "ep_conv_5x5_1_110"
  top: "ep_upsample_111"
  name: "upsample_481"
  type: UPSAMPLING
  upsampling_param {
    kernel_size: 2
  }
}
layers {
  bottom: "ep_upsample_111"
  top: "ep_t3_conv_5x5_1_431"
  name: "t3_conv_5x5_1_497"
  type: CONVOLUTION
  blobs_lr: 1
  blobs_lr: 2
  weight_decay: 1
  weight_decay: 0
  convolution_param {
    num_output: 1
    pad: 2
    kernel_size: 5
    stride: 1
    weight_filler {
      type: "xavier"
    }
    bias_filler {
      type: "constant"
      value: 0.1
    }
  }
  param: "dec_mask_conv3_w"
  param: "dec_mask_conv3_b"
}
layers {
  bottom: "ep_split_112"
  bottom: "rotations4"
  top: "ep_tensor_product_113"
  name: "tensor_product_18"
  type: TENSOR_PRODUCT
  blobs_lr: 1
  blobs_lr: 2
  weight_decay: 1
  weight_decay: 0
  inner_product_param {
    num_output: 512
    weight_filler {
      type: "xavier"
    }
    bias_filler {
      type: "constant"
      value: 0.1
    }
  }
  param: "tensor_view_w"
  param: "tensor_view_b"
}
layers {
  bottom: "ep_tensor_product_113"
  top: "ep_relu_114"
  name: "relu_34"
  type: RELU
}
layers {
  bottom: "ep_relu_114"
  top: "ep_split_116"
  top: "ep_split_137"
  name: "split_50"
  type: SPLIT
}
layers {
  bottom: "ep_split_115"
  bottom: "ep_split_116"
  top: "ep_concat_117"
  name: "concat_66"
  type: CONCAT
  concat_param {
    concat_dim: 1
  }
}
layers {
  bottom: "ep_concat_117"
  top: "ep_inner_product_118"
  name: "inner_product_82"
  type: INNER_PRODUCT
  blobs_lr: 1
  blobs_lr: 2
  weight_decay: 1
  weight_decay: 0
  inner_product_param {
    num_output: 1024
    weight_filler {
      type: "xavier"
    }
    bias_filler {
      type: "constant"
      value: 0.1
    }
  }
  param: "dec_fc1_w"
  param: "dec_fc1_b"
}
layers {
  bottom: "ep_inner_product_118"
  top: "ep_inner_product_118"
  name: "relu_98"
  type: RELU
}
layers {
  bottom: "ep_inner_product_118"
  top: "ep_inner_product_119"
  name: "inner_product_114"
  type: INNER_PRODUCT
  blobs_lr: 1
  blobs_lr: 2
  weight_decay: 1
  weight_decay: 0
  inner_product_param {
    num_output: 1024
    weight_filler {
      type: "xavier"
    }
    bias_filler {
      type: "constant"
      value: 0.1
    }
  }
  param: "dec_fc2_w"
  param: "dec_fc2_b"
}
layers {
  bottom: "ep_inner_product_119"
  top: "ep_relu_120"
  name: "relu_130"
  type: RELU
}
layers {
  bottom: "ep_relu_120"
  top: "ep_split_121"
  top: "ep_split_129"
  name: "split_146"
  type: SPLIT
}
layers {
  bottom: "ep_split_121"
  top: "ep_inner_product_122"
  name: "inner_product_162"
  type: INNER_PRODUCT
  blobs_lr: 1
  blobs_lr: 2
  weight_decay: 1
  weight_decay: 0
  inner_product_param {
    num_output: 16384
    weight_filler {
      type: "xavier"
    }
    bias_filler {
      type: "constant"
      value: 0.1
    }
  }
  param: "dec_img_fc1_w"
  param: "dec_img_fc1_b"
}
layers {
  bottom: "ep_inner_product_122"
  top: "ep_inner_product_122"
  name: "relu_178"
  type: RELU
}
layers {
  bottom: "ep_inner_product_122"
  top: "ep_folding_123"
  name: "folding_194"
  type: FOLDING
  folding_param {
    channels_folded: 256
    height_folded: 8
    width_folded: 8
  }
}
layers {
  bottom: "ep_folding_123"
  bottom: "mask1"
  top: "ep_unpool_2x2_2_124"
  name: "unpool_2x2_2_210"
  type: UNPOOLING
  unpooling_param {
    unpool: MAX
    kernel_size: 2
    stride: 2
  }
}
layers {
  bottom: "ep_unpool_2x2_2_124"
  top: "ep_conv_5x5_1_125"
  name: "conv_5x5_1_226"
  type: CONVOLUTION
  blobs_lr: 1
  blobs_lr: 2
  weight_decay: 1
  weight_decay: 0
  convolution_param {
    num_output: 128
    pad: 2
    kernel_size: 5
    stride: 1
    weight_filler {
      type: "xavier"
    }
    bias_filler {
      type: "constant"
      value: 0.1
    }
  }
  param: "dec_img_conv1_w"
  param: "dec_img_conv1_b"
}
layers {
  bottom: "ep_conv_5x5_1_125"
  top: "ep_conv_5x5_1_125"
  name: "relu_242"
  type: RELU
}
layers {
  bottom: "ep_conv_5x5_1_125"
  bottom: "mask2"
  top: "ep_unpool_2x2_2_126"
  name: "unpool_2x2_2_258"
  type: UNPOOLING
  unpooling_param {
    unpool: MAX
    kernel_size: 2
    stride: 2
  }
}
layers {
  bottom: "ep_unpool_2x2_2_126"
  top: "ep_conv_5x5_1_127"
  name: "conv_5x5_1_274"
  type: CONVOLUTION
  blobs_lr: 1
  blobs_lr: 2
  weight_decay: 1
  weight_decay: 0
  convolution_param {
    num_output: 64
    pad: 2
    kernel_size: 5
    stride: 1
    weight_filler {
      type: "xavier"
    }
    bias_filler {
      type: "constant"
      value: 0.1
    }
  }
  param: "dec_img_conv2_w"
  param: "dec_img_conv2_b"
}
layers {
  bottom: "ep_conv_5x5_1_127"
  top: "ep_conv_5x5_1_127"
  name: "relu_290"
  type: RELU
}
layers {
  bottom: "ep_conv_5x5_1_127"
  bottom: "mask3"
  top: "ep_unpool_2x2_2_128"
  name: "unpool_2x2_2_306"
  type: UNPOOLING
  unpooling_param {
    unpool: MAX
    kernel_size: 2
    stride: 2
  }
}
layers {
  bottom: "ep_unpool_2x2_2_128"
  top: "ep_t4_conv_5x5_1_416"
  name: "t4_conv_5x5_1_322"
  type: CONVOLUTION
  blobs_lr: 1
  blobs_lr: 2
  weight_decay: 1
  weight_decay: 0
  convolution_param {
    num_output: 3
    pad: 2
    kernel_size: 5
    stride: 1
    weight_filler {
      type: "xavier"
    }
    bias_filler {
      type: "constant"
      value: 0.1
    }
  }
  param: "dec_img_conv3_w"
  param: "dec_img_conv3_b"
}
layers {
  bottom: "ep_split_129"
  top: "ep_inner_product_130"
  name: "inner_product_338"
  type: INNER_PRODUCT
  blobs_lr: 1
  blobs_lr: 2
  weight_decay: 1
  weight_decay: 0
  inner_product_param {
    num_output: 8192
    weight_filler {
      type: "xavier"
    }
    bias_filler {
      type: "constant"
      value: 0.1
    }
  }
  param: "dec_mask_fc1_w"
  param: "dec_mask_fc1_b"
}
layers {
  bottom: "ep_inner_product_130"
  top: "ep_inner_product_130"
  name: "relu_354"
  type: RELU
}
layers {
  bottom: "ep_inner_product_130"
  top: "ep_folding_131"
  name: "folding_370"
  type: FOLDING
  folding_param {
    channels_folded: 128
    height_folded: 8
    width_folded: 8
  }
}
layers {
  bottom: "ep_folding_131"
  top: "ep_upsample_132"
  name: "upsample_386"
  type: UPSAMPLING
  upsampling_param {
    kernel_size: 2
  }
}
layers {
  bottom: "ep_upsample_132"
  top: "ep_conv_5x5_1_133"
  name: "conv_5x5_1_402"
  type: CONVOLUTION
  blobs_lr: 1
  blobs_lr: 2
  weight_decay: 1
  weight_decay: 0
  convolution_param {
    num_output: 64
    pad: 2
    kernel_size: 5
    stride: 1
    weight_filler {
      type: "xavier"
    }
    bias_filler {
      type: "constant"
      value: 0.1
    }
  }
  param: "dec_mask_conv1_w"
  param: "dec_mask_conv1_b"
}
layers {
  bottom: "ep_conv_5x5_1_133"
  top: "ep_conv_5x5_1_133"
  name: "relu_418"
  type: RELU
}
layers {
  bottom: "ep_conv_5x5_1_133"
  top: "ep_upsample_134"
  name: "upsample_434"
  type: UPSAMPLING
  upsampling_param {
    kernel_size: 2
  }
}
layers {
  bottom: "ep_upsample_134"
  top: "ep_conv_5x5_1_135"
  name: "conv_5x5_1_450"
  type: CONVOLUTION
  blobs_lr: 1
  blobs_lr: 2
  weight_decay: 1
  weight_decay: 0
  convolution_param {
    num_output: 32
    pad: 2
    kernel_size: 5
    stride: 1
    weight_filler {
      type: "xavier"
    }
    bias_filler {
      type: "constant"
      value: 0.1
    }
  }
  param: "dec_mask_conv2_w"
  param: "dec_mask_conv2_b"
}
layers {
  bottom: "ep_conv_5x5_1_135"
  top: "ep_conv_5x5_1_135"
  name: "relu_466"
  type: RELU
}
layers {
  bottom: "ep_conv_5x5_1_135"
  top: "ep_upsample_136"
  name: "upsample_482"
  type: UPSAMPLING
  upsampling_param {
    kernel_size: 2
  }
}
layers {
  bottom: "ep_upsample_136"
  top: "ep_t4_conv_5x5_1_432"
  name: "t4_conv_5x5_1_498"
  type: CONVOLUTION
  blobs_lr: 1
  blobs_lr: 2
  weight_decay: 1
  weight_decay: 0
  convolution_param {
    num_output: 1
    pad: 2
    kernel_size: 5
    stride: 1
    weight_filler {
      type: "xavier"
    }
    bias_filler {
      type: "constant"
      value: 0.1
    }
  }
  param: "dec_mask_conv3_w"
  param: "dec_mask_conv3_b"
}
layers {
  bottom: "ep_split_137"
  bottom: "rotations5"
  top: "ep_tensor_product_138"
  name: "tensor_product_19"
  type: TENSOR_PRODUCT
  blobs_lr: 1
  blobs_lr: 2
  weight_decay: 1
  weight_decay: 0
  inner_product_param {
    num_output: 512
    weight_filler {
      type: "xavier"
    }
    bias_filler {
      type: "constant"
      value: 0.1
    }
  }
  param: "tensor_view_w"
  param: "tensor_view_b"
}
layers {
  bottom: "ep_tensor_product_138"
  top: "ep_relu_139"
  name: "relu_35"
  type: RELU
}
layers {
  bottom: "ep_relu_139"
  top: "ep_split_141"
  top: "ep_split_162"
  name: "split_51"
  type: SPLIT
}
layers {
  bottom: "ep_split_140"
  bottom: "ep_split_141"
  top: "ep_concat_142"
  name: "concat_67"
  type: CONCAT
  concat_param {
    concat_dim: 1
  }
}
layers {
  bottom: "ep_concat_142"
  top: "ep_inner_product_143"
  name: "inner_product_83"
  type: INNER_PRODUCT
  blobs_lr: 1
  blobs_lr: 2
  weight_decay: 1
  weight_decay: 0
  inner_product_param {
    num_output: 1024
    weight_filler {
      type: "xavier"
    }
    bias_filler {
      type: "constant"
      value: 0.1
    }
  }
  param: "dec_fc1_w"
  param: "dec_fc1_b"
}
layers {
  bottom: "ep_inner_product_143"
  top: "ep_inner_product_143"
  name: "relu_99"
  type: RELU
}
layers {
  bottom: "ep_inner_product_143"
  top: "ep_inner_product_144"
  name: "inner_product_115"
  type: INNER_PRODUCT
  blobs_lr: 1
  blobs_lr: 2
  weight_decay: 1
  weight_decay: 0
  inner_product_param {
    num_output: 1024
    weight_filler {
      type: "xavier"
    }
    bias_filler {
      type: "constant"
      value: 0.1
    }
  }
  param: "dec_fc2_w"
  param: "dec_fc2_b"
}
layers {
  bottom: "ep_inner_product_144"
  top: "ep_relu_145"
  name: "relu_131"
  type: RELU
}
layers {
  bottom: "ep_relu_145"
  top: "ep_split_146"
  top: "ep_split_154"
  name: "split_147"
  type: SPLIT
}
layers {
  bottom: "ep_split_146"
  top: "ep_inner_product_147"
  name: "inner_product_163"
  type: INNER_PRODUCT
  blobs_lr: 1
  blobs_lr: 2
  weight_decay: 1
  weight_decay: 0
  inner_product_param {
    num_output: 16384
    weight_filler {
      type: "xavier"
    }
    bias_filler {
      type: "constant"
      value: 0.1
    }
  }
  param: "dec_img_fc1_w"
  param: "dec_img_fc1_b"
}
layers {
  bottom: "ep_inner_product_147"
  top: "ep_inner_product_147"
  name: "relu_179"
  type: RELU
}
layers {
  bottom: "ep_inner_product_147"
  top: "ep_folding_148"
  name: "folding_195"
  type: FOLDING
  folding_param {
    channels_folded: 256
    height_folded: 8
    width_folded: 8
  }
}
layers {
  bottom: "ep_folding_148"
  bottom: "mask1"
  top: "ep_unpool_2x2_2_149"
  name: "unpool_2x2_2_211"
  type: UNPOOLING
  unpooling_param {
    unpool: MAX
    kernel_size: 2
    stride: 2
  }
}
layers {
  bottom: "ep_unpool_2x2_2_149"
  top: "ep_conv_5x5_1_150"
  name: "conv_5x5_1_227"
  type: CONVOLUTION
  blobs_lr: 1
  blobs_lr: 2
  weight_decay: 1
  weight_decay: 0
  convolution_param {
    num_output: 128
    pad: 2
    kernel_size: 5
    stride: 1
    weight_filler {
      type: "xavier"
    }
    bias_filler {
      type: "constant"
      value: 0.1
    }
  }
  param: "dec_img_conv1_w"
  param: "dec_img_conv1_b"
}
layers {
  bottom: "ep_conv_5x5_1_150"
  top: "ep_conv_5x5_1_150"
  name: "relu_243"
  type: RELU
}
layers {
  bottom: "ep_conv_5x5_1_150"
  bottom: "mask2"
  top: "ep_unpool_2x2_2_151"
  name: "unpool_2x2_2_259"
  type: UNPOOLING
  unpooling_param {
    unpool: MAX
    kernel_size: 2
    stride: 2
  }
}
layers {
  bottom: "ep_unpool_2x2_2_151"
  top: "ep_conv_5x5_1_152"
  name: "conv_5x5_1_275"
  type: CONVOLUTION
  blobs_lr: 1
  blobs_lr: 2
  weight_decay: 1
  weight_decay: 0
  convolution_param {
    num_output: 64
    pad: 2
    kernel_size: 5
    stride: 1
    weight_filler {
      type: "xavier"
    }
    bias_filler {
      type: "constant"
      value: 0.1
    }
  }
  param: "dec_img_conv2_w"
  param: "dec_img_conv2_b"
}
layers {
  bottom: "ep_conv_5x5_1_152"
  top: "ep_conv_5x5_1_152"
  name: "relu_291"
  type: RELU
}
layers {
  bottom: "ep_conv_5x5_1_152"
  bottom: "mask3"
  top: "ep_unpool_2x2_2_153"
  name: "unpool_2x2_2_307"
  type: UNPOOLING
  unpooling_param {
    unpool: MAX
    kernel_size: 2
    stride: 2
  }
}
layers {
  bottom: "ep_unpool_2x2_2_153"
  top: "ep_t5_conv_5x5_1_417"
  name: "t5_conv_5x5_1_323"
  type: CONVOLUTION
  blobs_lr: 1
  blobs_lr: 2
  weight_decay: 1
  weight_decay: 0
  convolution_param {
    num_output: 3
    pad: 2
    kernel_size: 5
    stride: 1
    weight_filler {
      type: "xavier"
    }
    bias_filler {
      type: "constant"
      value: 0.1
    }
  }
  param: "dec_img_conv3_w"
  param: "dec_img_conv3_b"
}
layers {
  bottom: "ep_split_154"
  top: "ep_inner_product_155"
  name: "inner_product_339"
  type: INNER_PRODUCT
  blobs_lr: 1
  blobs_lr: 2
  weight_decay: 1
  weight_decay: 0
  inner_product_param {
    num_output: 8192
    weight_filler {
      type: "xavier"
    }
    bias_filler {
      type: "constant"
      value: 0.1
    }
  }
  param: "dec_mask_fc1_w"
  param: "dec_mask_fc1_b"
}
layers {
  bottom: "ep_inner_product_155"
  top: "ep_inner_product_155"
  name: "relu_355"
  type: RELU
}
layers {
  bottom: "ep_inner_product_155"
  top: "ep_folding_156"
  name: "folding_371"
  type: FOLDING
  folding_param {
    channels_folded: 128
    height_folded: 8
    width_folded: 8
  }
}
layers {
  bottom: "ep_folding_156"
  top: "ep_upsample_157"
  name: "upsample_387"
  type: UPSAMPLING
  upsampling_param {
    kernel_size: 2
  }
}
layers {
  bottom: "ep_upsample_157"
  top: "ep_conv_5x5_1_158"
  name: "conv_5x5_1_403"
  type: CONVOLUTION
  blobs_lr: 1
  blobs_lr: 2
  weight_decay: 1
  weight_decay: 0
  convolution_param {
    num_output: 64
    pad: 2
    kernel_size: 5
    stride: 1
    weight_filler {
      type: "xavier"
    }
    bias_filler {
      type: "constant"
      value: 0.1
    }
  }
  param: "dec_mask_conv1_w"
  param: "dec_mask_conv1_b"
}
layers {
  bottom: "ep_conv_5x5_1_158"
  top: "ep_conv_5x5_1_158"
  name: "relu_419"
  type: RELU
}
layers {
  bottom: "ep_conv_5x5_1_158"
  top: "ep_upsample_159"
  name: "upsample_435"
  type: UPSAMPLING
  upsampling_param {
    kernel_size: 2
  }
}
layers {
  bottom: "ep_upsample_159"
  top: "ep_conv_5x5_1_160"
  name: "conv_5x5_1_451"
  type: CONVOLUTION
  blobs_lr: 1
  blobs_lr: 2
  weight_decay: 1
  weight_decay: 0
  convolution_param {
    num_output: 32
    pad: 2
    kernel_size: 5
    stride: 1
    weight_filler {
      type: "xavier"
    }
    bias_filler {
      type: "constant"
      value: 0.1
    }
  }
  param: "dec_mask_conv2_w"
  param: "dec_mask_conv2_b"
}
layers {
  bottom: "ep_conv_5x5_1_160"
  top: "ep_conv_5x5_1_160"
  name: "relu_467"
  type: RELU
}
layers {
  bottom: "ep_conv_5x5_1_160"
  top: "ep_upsample_161"
  name: "upsample_483"
  type: UPSAMPLING
  upsampling_param {
    kernel_size: 2
  }
}
layers {
  bottom: "ep_upsample_161"
  top: "ep_t5_conv_5x5_1_433"
  name: "t5_conv_5x5_1_499"
  type: CONVOLUTION
  blobs_lr: 1
  blobs_lr: 2
  weight_decay: 1
  weight_decay: 0
  convolution_param {
    num_output: 1
    pad: 2
    kernel_size: 5
    stride: 1
    weight_filler {
      type: "xavier"
    }
    bias_filler {
      type: "constant"
      value: 0.1
    }
  }
  param: "dec_mask_conv3_w"
  param: "dec_mask_conv3_b"
}
layers {
  bottom: "ep_split_162"
  bottom: "rotations6"
  top: "ep_tensor_product_163"
  name: "tensor_product_20"
  type: TENSOR_PRODUCT
  blobs_lr: 1
  blobs_lr: 2
  weight_decay: 1
  weight_decay: 0
  inner_product_param {
    num_output: 512
    weight_filler {
      type: "xavier"
    }
    bias_filler {
      type: "constant"
      value: 0.1
    }
  }
  param: "tensor_view_w"
  param: "tensor_view_b"
}
layers {
  bottom: "ep_tensor_product_163"
  top: "ep_relu_164"
  name: "relu_36"
  type: RELU
}
layers {
  bottom: "ep_relu_164"
  top: "ep_split_166"
  top: "ep_split_187"
  name: "split_52"
  type: SPLIT
}
layers {
  bottom: "ep_split_165"
  bottom: "ep_split_166"
  top: "ep_concat_167"
  name: "concat_68"
  type: CONCAT
  concat_param {
    concat_dim: 1
  }
}
layers {
  bottom: "ep_concat_167"
  top: "ep_inner_product_168"
  name: "inner_product_84"
  type: INNER_PRODUCT
  blobs_lr: 1
  blobs_lr: 2
  weight_decay: 1
  weight_decay: 0
  inner_product_param {
    num_output: 1024
    weight_filler {
      type: "xavier"
    }
    bias_filler {
      type: "constant"
      value: 0.1
    }
  }
  param: "dec_fc1_w"
  param: "dec_fc1_b"
}
layers {
  bottom: "ep_inner_product_168"
  top: "ep_inner_product_168"
  name: "relu_100"
  type: RELU
}
layers {
  bottom: "ep_inner_product_168"
  top: "ep_inner_product_169"
  name: "inner_product_116"
  type: INNER_PRODUCT
  blobs_lr: 1
  blobs_lr: 2
  weight_decay: 1
  weight_decay: 0
  inner_product_param {
    num_output: 1024
    weight_filler {
      type: "xavier"
    }
    bias_filler {
      type: "constant"
      value: 0.1
    }
  }
  param: "dec_fc2_w"
  param: "dec_fc2_b"
}
layers {
  bottom: "ep_inner_product_169"
  top: "ep_relu_170"
  name: "relu_132"
  type: RELU
}
layers {
  bottom: "ep_relu_170"
  top: "ep_split_171"
  top: "ep_split_179"
  name: "split_148"
  type: SPLIT
}
layers {
  bottom: "ep_split_171"
  top: "ep_inner_product_172"
  name: "inner_product_164"
  type: INNER_PRODUCT
  blobs_lr: 1
  blobs_lr: 2
  weight_decay: 1
  weight_decay: 0
  inner_product_param {
    num_output: 16384
    weight_filler {
      type: "xavier"
    }
    bias_filler {
      type: "constant"
      value: 0.1
    }
  }
  param: "dec_img_fc1_w"
  param: "dec_img_fc1_b"
}
layers {
  bottom: "ep_inner_product_172"
  top: "ep_inner_product_172"
  name: "relu_180"
  type: RELU
}
layers {
  bottom: "ep_inner_product_172"
  top: "ep_folding_173"
  name: "folding_196"
  type: FOLDING
  folding_param {
    channels_folded: 256
    height_folded: 8
    width_folded: 8
  }
}
layers {
  bottom: "ep_folding_173"
  bottom: "mask1"
  top: "ep_unpool_2x2_2_174"
  name: "unpool_2x2_2_212"
  type: UNPOOLING
  unpooling_param {
    unpool: MAX
    kernel_size: 2
    stride: 2
  }
}
layers {
  bottom: "ep_unpool_2x2_2_174"
  top: "ep_conv_5x5_1_175"
  name: "conv_5x5_1_228"
  type: CONVOLUTION
  blobs_lr: 1
  blobs_lr: 2
  weight_decay: 1
  weight_decay: 0
  convolution_param {
    num_output: 128
    pad: 2
    kernel_size: 5
    stride: 1
    weight_filler {
      type: "xavier"
    }
    bias_filler {
      type: "constant"
      value: 0.1
    }
  }
  param: "dec_img_conv1_w"
  param: "dec_img_conv1_b"
}
layers {
  bottom: "ep_conv_5x5_1_175"
  top: "ep_conv_5x5_1_175"
  name: "relu_244"
  type: RELU
}
layers {
  bottom: "ep_conv_5x5_1_175"
  bottom: "mask2"
  top: "ep_unpool_2x2_2_176"
  name: "unpool_2x2_2_260"
  type: UNPOOLING
  unpooling_param {
    unpool: MAX
    kernel_size: 2
    stride: 2
  }
}
layers {
  bottom: "ep_unpool_2x2_2_176"
  top: "ep_conv_5x5_1_177"
  name: "conv_5x5_1_276"
  type: CONVOLUTION
  blobs_lr: 1
  blobs_lr: 2
  weight_decay: 1
  weight_decay: 0
  convolution_param {
    num_output: 64
    pad: 2
    kernel_size: 5
    stride: 1
    weight_filler {
      type: "xavier"
    }
    bias_filler {
      type: "constant"
      value: 0.1
    }
  }
  param: "dec_img_conv2_w"
  param: "dec_img_conv2_b"
}
layers {
  bottom: "ep_conv_5x5_1_177"
  top: "ep_conv_5x5_1_177"
  name: "relu_292"
  type: RELU
}
layers {
  bottom: "ep_conv_5x5_1_177"
  bottom: "mask3"
  top: "ep_unpool_2x2_2_178"
  name: "unpool_2x2_2_308"
  type: UNPOOLING
  unpooling_param {
    unpool: MAX
    kernel_size: 2
    stride: 2
  }
}
layers {
  bottom: "ep_unpool_2x2_2_178"
  top: "ep_t6_conv_5x5_1_418"
  name: "t6_conv_5x5_1_324"
  type: CONVOLUTION
  blobs_lr: 1
  blobs_lr: 2
  weight_decay: 1
  weight_decay: 0
  convolution_param {
    num_output: 3
    pad: 2
    kernel_size: 5
    stride: 1
    weight_filler {
      type: "xavier"
    }
    bias_filler {
      type: "constant"
      value: 0.1
    }
  }
  param: "dec_img_conv3_w"
  param: "dec_img_conv3_b"
}
layers {
  bottom: "ep_split_179"
  top: "ep_inner_product_180"
  name: "inner_product_340"
  type: INNER_PRODUCT
  blobs_lr: 1
  blobs_lr: 2
  weight_decay: 1
  weight_decay: 0
  inner_product_param {
    num_output: 8192
    weight_filler {
      type: "xavier"
    }
    bias_filler {
      type: "constant"
      value: 0.1
    }
  }
  param: "dec_mask_fc1_w"
  param: "dec_mask_fc1_b"
}
layers {
  bottom: "ep_inner_product_180"
  top: "ep_inner_product_180"
  name: "relu_356"
  type: RELU
}
layers {
  bottom: "ep_inner_product_180"
  top: "ep_folding_181"
  name: "folding_372"
  type: FOLDING
  folding_param {
    channels_folded: 128
    height_folded: 8
    width_folded: 8
  }
}
layers {
  bottom: "ep_folding_181"
  top: "ep_upsample_182"
  name: "upsample_388"
  type: UPSAMPLING
  upsampling_param {
    kernel_size: 2
  }
}
layers {
  bottom: "ep_upsample_182"
  top: "ep_conv_5x5_1_183"
  name: "conv_5x5_1_404"
  type: CONVOLUTION
  blobs_lr: 1
  blobs_lr: 2
  weight_decay: 1
  weight_decay: 0
  convolution_param {
    num_output: 64
    pad: 2
    kernel_size: 5
    stride: 1
    weight_filler {
      type: "xavier"
    }
    bias_filler {
      type: "constant"
      value: 0.1
    }
  }
  param: "dec_mask_conv1_w"
  param: "dec_mask_conv1_b"
}
layers {
  bottom: "ep_conv_5x5_1_183"
  top: "ep_conv_5x5_1_183"
  name: "relu_420"
  type: RELU
}
layers {
  bottom: "ep_conv_5x5_1_183"
  top: "ep_upsample_184"
  name: "upsample_436"
  type: UPSAMPLING
  upsampling_param {
    kernel_size: 2
  }
}
layers {
  bottom: "ep_upsample_184"
  top: "ep_conv_5x5_1_185"
  name: "conv_5x5_1_452"
  type: CONVOLUTION
  blobs_lr: 1
  blobs_lr: 2
  weight_decay: 1
  weight_decay: 0
  convolution_param {
    num_output: 32
    pad: 2
    kernel_size: 5
    stride: 1
    weight_filler {
      type: "xavier"
    }
    bias_filler {
      type: "constant"
      value: 0.1
    }
  }
  param: "dec_mask_conv2_w"
  param: "dec_mask_conv2_b"
}
layers {
  bottom: "ep_conv_5x5_1_185"
  top: "ep_conv_5x5_1_185"
  name: "relu_468"
  type: RELU
}
layers {
  bottom: "ep_conv_5x5_1_185"
  top: "ep_upsample_186"
  name: "upsample_484"
  type: UPSAMPLING
  upsampling_param {
    kernel_size: 2
  }
}
layers {
  bottom: "ep_upsample_186"
  top: "ep_t6_conv_5x5_1_434"
  name: "t6_conv_5x5_1_500"
  type: CONVOLUTION
  blobs_lr: 1
  blobs_lr: 2
  weight_decay: 1
  weight_decay: 0
  convolution_param {
    num_output: 1
    pad: 2
    kernel_size: 5
    stride: 1
    weight_filler {
      type: "xavier"
    }
    bias_filler {
      type: "constant"
      value: 0.1
    }
  }
  param: "dec_mask_conv3_w"
  param: "dec_mask_conv3_b"
}
layers {
  bottom: "ep_split_187"
  bottom: "rotations7"
  top: "ep_tensor_product_188"
  name: "tensor_product_21"
  type: TENSOR_PRODUCT
  blobs_lr: 1
  blobs_lr: 2
  weight_decay: 1
  weight_decay: 0
  inner_product_param {
    num_output: 512
    weight_filler {
      type: "xavier"
    }
    bias_filler {
      type: "constant"
      value: 0.1
    }
  }
  param: "tensor_view_w"
  param: "tensor_view_b"
}
layers {
  bottom: "ep_tensor_product_188"
  top: "ep_relu_189"
  name: "relu_37"
  type: RELU
}
layers {
  bottom: "ep_relu_189"
  top: "ep_split_191"
  top: "ep_split_212"
  name: "split_53"
  type: SPLIT
}
layers {
  bottom: "ep_split_190"
  bottom: "ep_split_191"
  top: "ep_concat_192"
  name: "concat_69"
  type: CONCAT
  concat_param {
    concat_dim: 1
  }
}
layers {
  bottom: "ep_concat_192"
  top: "ep_inner_product_193"
  name: "inner_product_85"
  type: INNER_PRODUCT
  blobs_lr: 1
  blobs_lr: 2
  weight_decay: 1
  weight_decay: 0
  inner_product_param {
    num_output: 1024
    weight_filler {
      type: "xavier"
    }
    bias_filler {
      type: "constant"
      value: 0.1
    }
  }
  param: "dec_fc1_w"
  param: "dec_fc1_b"
}
layers {
  bottom: "ep_inner_product_193"
  top: "ep_inner_product_193"
  name: "relu_101"
  type: RELU
}
layers {
  bottom: "ep_inner_product_193"
  top: "ep_inner_product_194"
  name: "inner_product_117"
  type: INNER_PRODUCT
  blobs_lr: 1
  blobs_lr: 2
  weight_decay: 1
  weight_decay: 0
  inner_product_param {
    num_output: 1024
    weight_filler {
      type: "xavier"
    }
    bias_filler {
      type: "constant"
      value: 0.1
    }
  }
  param: "dec_fc2_w"
  param: "dec_fc2_b"
}
layers {
  bottom: "ep_inner_product_194"
  top: "ep_relu_195"
  name: "relu_133"
  type: RELU
}
layers {
  bottom: "ep_relu_195"
  top: "ep_split_196"
  top: "ep_split_204"
  name: "split_149"
  type: SPLIT
}
layers {
  bottom: "ep_split_196"
  top: "ep_inner_product_197"
  name: "inner_product_165"
  type: INNER_PRODUCT
  blobs_lr: 1
  blobs_lr: 2
  weight_decay: 1
  weight_decay: 0
  inner_product_param {
    num_output: 16384
    weight_filler {
      type: "xavier"
    }
    bias_filler {
      type: "constant"
      value: 0.1
    }
  }
  param: "dec_img_fc1_w"
  param: "dec_img_fc1_b"
}
layers {
  bottom: "ep_inner_product_197"
  top: "ep_inner_product_197"
  name: "relu_181"
  type: RELU
}
layers {
  bottom: "ep_inner_product_197"
  top: "ep_folding_198"
  name: "folding_197"
  type: FOLDING
  folding_param {
    channels_folded: 256
    height_folded: 8
    width_folded: 8
  }
}
layers {
  bottom: "ep_folding_198"
  bottom: "mask1"
  top: "ep_unpool_2x2_2_199"
  name: "unpool_2x2_2_213"
  type: UNPOOLING
  unpooling_param {
    unpool: MAX
    kernel_size: 2
    stride: 2
  }
}
layers {
  bottom: "ep_unpool_2x2_2_199"
  top: "ep_conv_5x5_1_200"
  name: "conv_5x5_1_229"
  type: CONVOLUTION
  blobs_lr: 1
  blobs_lr: 2
  weight_decay: 1
  weight_decay: 0
  convolution_param {
    num_output: 128
    pad: 2
    kernel_size: 5
    stride: 1
    weight_filler {
      type: "xavier"
    }
    bias_filler {
      type: "constant"
      value: 0.1
    }
  }
  param: "dec_img_conv1_w"
  param: "dec_img_conv1_b"
}
layers {
  bottom: "ep_conv_5x5_1_200"
  top: "ep_conv_5x5_1_200"
  name: "relu_245"
  type: RELU
}
layers {
  bottom: "ep_conv_5x5_1_200"
  bottom: "mask2"
  top: "ep_unpool_2x2_2_201"
  name: "unpool_2x2_2_261"
  type: UNPOOLING
  unpooling_param {
    unpool: MAX
    kernel_size: 2
    stride: 2
  }
}
layers {
  bottom: "ep_unpool_2x2_2_201"
  top: "ep_conv_5x5_1_202"
  name: "conv_5x5_1_277"
  type: CONVOLUTION
  blobs_lr: 1
  blobs_lr: 2
  weight_decay: 1
  weight_decay: 0
  convolution_param {
    num_output: 64
    pad: 2
    kernel_size: 5
    stride: 1
    weight_filler {
      type: "xavier"
    }
    bias_filler {
      type: "constant"
      value: 0.1
    }
  }
  param: "dec_img_conv2_w"
  param: "dec_img_conv2_b"
}
layers {
  bottom: "ep_conv_5x5_1_202"
  top: "ep_conv_5x5_1_202"
  name: "relu_293"
  type: RELU
}
layers {
  bottom: "ep_conv_5x5_1_202"
  bottom: "mask3"
  top: "ep_unpool_2x2_2_203"
  name: "unpool_2x2_2_309"
  type: UNPOOLING
  unpooling_param {
    unpool: MAX
    kernel_size: 2
    stride: 2
  }
}
layers {
  bottom: "ep_unpool_2x2_2_203"
  top: "ep_t7_conv_5x5_1_419"
  name: "t7_conv_5x5_1_325"
  type: CONVOLUTION
  blobs_lr: 1
  blobs_lr: 2
  weight_decay: 1
  weight_decay: 0
  convolution_param {
    num_output: 3
    pad: 2
    kernel_size: 5
    stride: 1
    weight_filler {
      type: "xavier"
    }
    bias_filler {
      type: "constant"
      value: 0.1
    }
  }
  param: "dec_img_conv3_w"
  param: "dec_img_conv3_b"
}
layers {
  bottom: "ep_split_204"
  top: "ep_inner_product_205"
  name: "inner_product_341"
  type: INNER_PRODUCT
  blobs_lr: 1
  blobs_lr: 2
  weight_decay: 1
  weight_decay: 0
  inner_product_param {
    num_output: 8192
    weight_filler {
      type: "xavier"
    }
    bias_filler {
      type: "constant"
      value: 0.1
    }
  }
  param: "dec_mask_fc1_w"
  param: "dec_mask_fc1_b"
}
layers {
  bottom: "ep_inner_product_205"
  top: "ep_inner_product_205"
  name: "relu_357"
  type: RELU
}
layers {
  bottom: "ep_inner_product_205"
  top: "ep_folding_206"
  name: "folding_373"
  type: FOLDING
  folding_param {
    channels_folded: 128
    height_folded: 8
    width_folded: 8
  }
}
layers {
  bottom: "ep_folding_206"
  top: "ep_upsample_207"
  name: "upsample_389"
  type: UPSAMPLING
  upsampling_param {
    kernel_size: 2
  }
}
layers {
  bottom: "ep_upsample_207"
  top: "ep_conv_5x5_1_208"
  name: "conv_5x5_1_405"
  type: CONVOLUTION
  blobs_lr: 1
  blobs_lr: 2
  weight_decay: 1
  weight_decay: 0
  convolution_param {
    num_output: 64
    pad: 2
    kernel_size: 5
    stride: 1
    weight_filler {
      type: "xavier"
    }
    bias_filler {
      type: "constant"
      value: 0.1
    }
  }
  param: "dec_mask_conv1_w"
  param: "dec_mask_conv1_b"
}
layers {
  bottom: "ep_conv_5x5_1_208"
  top: "ep_conv_5x5_1_208"
  name: "relu_421"
  type: RELU
}
layers {
  bottom: "ep_conv_5x5_1_208"
  top: "ep_upsample_209"
  name: "upsample_437"
  type: UPSAMPLING
  upsampling_param {
    kernel_size: 2
  }
}
layers {
  bottom: "ep_upsample_209"
  top: "ep_conv_5x5_1_210"
  name: "conv_5x5_1_453"
  type: CONVOLUTION
  blobs_lr: 1
  blobs_lr: 2
  weight_decay: 1
  weight_decay: 0
  convolution_param {
    num_output: 32
    pad: 2
    kernel_size: 5
    stride: 1
    weight_filler {
      type: "xavier"
    }
    bias_filler {
      type: "constant"
      value: 0.1
    }
  }
  param: "dec_mask_conv2_w"
  param: "dec_mask_conv2_b"
}
layers {
  bottom: "ep_conv_5x5_1_210"
  top: "ep_conv_5x5_1_210"
  name: "relu_469"
  type: RELU
}
layers {
  bottom: "ep_conv_5x5_1_210"
  top: "ep_upsample_211"
  name: "upsample_485"
  type: UPSAMPLING
  upsampling_param {
    kernel_size: 2
  }
}
layers {
  bottom: "ep_upsample_211"
  top: "ep_t7_conv_5x5_1_435"
  name: "t7_conv_5x5_1_501"
  type: CONVOLUTION
  blobs_lr: 1
  blobs_lr: 2
  weight_decay: 1
  weight_decay: 0
  convolution_param {
    num_output: 1
    pad: 2
    kernel_size: 5
    stride: 1
    weight_filler {
      type: "xavier"
    }
    bias_filler {
      type: "constant"
      value: 0.1
    }
  }
  param: "dec_mask_conv3_w"
  param: "dec_mask_conv3_b"
}
layers {
  bottom: "ep_split_212"
  bottom: "rotations8"
  top: "ep_tensor_product_213"
  name: "tensor_product_22"
  type: TENSOR_PRODUCT
  blobs_lr: 1
  blobs_lr: 2
  weight_decay: 1
  weight_decay: 0
  inner_product_param {
    num_output: 512
    weight_filler {
      type: "xavier"
    }
    bias_filler {
      type: "constant"
      value: 0.1
    }
  }
  param: "tensor_view_w"
  param: "tensor_view_b"
}
layers {
  bottom: "ep_tensor_product_213"
  top: "ep_relu_214"
  name: "relu_38"
  type: RELU
}
layers {
  bottom: "ep_relu_214"
  top: "ep_split_216"
  top: "ep_split_237"
  name: "split_54"
  type: SPLIT
}
layers {
  bottom: "ep_split_215"
  bottom: "ep_split_216"
  top: "ep_concat_217"
  name: "concat_70"
  type: CONCAT
  concat_param {
    concat_dim: 1
  }
}
layers {
  bottom: "ep_concat_217"
  top: "ep_inner_product_218"
  name: "inner_product_86"
  type: INNER_PRODUCT
  blobs_lr: 1
  blobs_lr: 2
  weight_decay: 1
  weight_decay: 0
  inner_product_param {
    num_output: 1024
    weight_filler {
      type: "xavier"
    }
    bias_filler {
      type: "constant"
      value: 0.1
    }
  }
  param: "dec_fc1_w"
  param: "dec_fc1_b"
}
layers {
  bottom: "ep_inner_product_218"
  top: "ep_inner_product_218"
  name: "relu_102"
  type: RELU
}
layers {
  bottom: "ep_inner_product_218"
  top: "ep_inner_product_219"
  name: "inner_product_118"
  type: INNER_PRODUCT
  blobs_lr: 1
  blobs_lr: 2
  weight_decay: 1
  weight_decay: 0
  inner_product_param {
    num_output: 1024
    weight_filler {
      type: "xavier"
    }
    bias_filler {
      type: "constant"
      value: 0.1
    }
  }
  param: "dec_fc2_w"
  param: "dec_fc2_b"
}
layers {
  bottom: "ep_inner_product_219"
  top: "ep_relu_220"
  name: "relu_134"
  type: RELU
}
layers {
  bottom: "ep_relu_220"
  top: "ep_split_221"
  top: "ep_split_229"
  name: "split_150"
  type: SPLIT
}
layers {
  bottom: "ep_split_221"
  top: "ep_inner_product_222"
  name: "inner_product_166"
  type: INNER_PRODUCT
  blobs_lr: 1
  blobs_lr: 2
  weight_decay: 1
  weight_decay: 0
  inner_product_param {
    num_output: 16384
    weight_filler {
      type: "xavier"
    }
    bias_filler {
      type: "constant"
      value: 0.1
    }
  }
  param: "dec_img_fc1_w"
  param: "dec_img_fc1_b"
}
layers {
  bottom: "ep_inner_product_222"
  top: "ep_inner_product_222"
  name: "relu_182"
  type: RELU
}
layers {
  bottom: "ep_inner_product_222"
  top: "ep_folding_223"
  name: "folding_198"
  type: FOLDING
  folding_param {
    channels_folded: 256
    height_folded: 8
    width_folded: 8
  }
}
layers {
  bottom: "ep_folding_223"
  bottom: "mask1"
  top: "ep_unpool_2x2_2_224"
  name: "unpool_2x2_2_214"
  type: UNPOOLING
  unpooling_param {
    unpool: MAX
    kernel_size: 2
    stride: 2
  }
}
layers {
  bottom: "ep_unpool_2x2_2_224"
  top: "ep_conv_5x5_1_225"
  name: "conv_5x5_1_230"
  type: CONVOLUTION
  blobs_lr: 1
  blobs_lr: 2
  weight_decay: 1
  weight_decay: 0
  convolution_param {
    num_output: 128
    pad: 2
    kernel_size: 5
    stride: 1
    weight_filler {
      type: "xavier"
    }
    bias_filler {
      type: "constant"
      value: 0.1
    }
  }
  param: "dec_img_conv1_w"
  param: "dec_img_conv1_b"
}
layers {
  bottom: "ep_conv_5x5_1_225"
  top: "ep_conv_5x5_1_225"
  name: "relu_246"
  type: RELU
}
layers {
  bottom: "ep_conv_5x5_1_225"
  bottom: "mask2"
  top: "ep_unpool_2x2_2_226"
  name: "unpool_2x2_2_262"
  type: UNPOOLING
  unpooling_param {
    unpool: MAX
    kernel_size: 2
    stride: 2
  }
}
layers {
  bottom: "ep_unpool_2x2_2_226"
  top: "ep_conv_5x5_1_227"
  name: "conv_5x5_1_278"
  type: CONVOLUTION
  blobs_lr: 1
  blobs_lr: 2
  weight_decay: 1
  weight_decay: 0
  convolution_param {
    num_output: 64
    pad: 2
    kernel_size: 5
    stride: 1
    weight_filler {
      type: "xavier"
    }
    bias_filler {
      type: "constant"
      value: 0.1
    }
  }
  param: "dec_img_conv2_w"
  param: "dec_img_conv2_b"
}
layers {
  bottom: "ep_conv_5x5_1_227"
  top: "ep_conv_5x5_1_227"
  name: "relu_294"
  type: RELU
}
layers {
  bottom: "ep_conv_5x5_1_227"
  bottom: "mask3"
  top: "ep_unpool_2x2_2_228"
  name: "unpool_2x2_2_310"
  type: UNPOOLING
  unpooling_param {
    unpool: MAX
    kernel_size: 2
    stride: 2
  }
}
layers {
  bottom: "ep_unpool_2x2_2_228"
  top: "ep_t8_conv_5x5_1_420"
  name: "t8_conv_5x5_1_326"
  type: CONVOLUTION
  blobs_lr: 1
  blobs_lr: 2
  weight_decay: 1
  weight_decay: 0
  convolution_param {
    num_output: 3
    pad: 2
    kernel_size: 5
    stride: 1
    weight_filler {
      type: "xavier"
    }
    bias_filler {
      type: "constant"
      value: 0.1
    }
  }
  param: "dec_img_conv3_w"
  param: "dec_img_conv3_b"
}
layers {
  bottom: "ep_split_229"
  top: "ep_inner_product_230"
  name: "inner_product_342"
  type: INNER_PRODUCT
  blobs_lr: 1
  blobs_lr: 2
  weight_decay: 1
  weight_decay: 0
  inner_product_param {
    num_output: 8192
    weight_filler {
      type: "xavier"
    }
    bias_filler {
      type: "constant"
      value: 0.1
    }
  }
  param: "dec_mask_fc1_w"
  param: "dec_mask_fc1_b"
}
layers {
  bottom: "ep_inner_product_230"
  top: "ep_inner_product_230"
  name: "relu_358"
  type: RELU
}
layers {
  bottom: "ep_inner_product_230"
  top: "ep_folding_231"
  name: "folding_374"
  type: FOLDING
  folding_param {
    channels_folded: 128
    height_folded: 8
    width_folded: 8
  }
}
layers {
  bottom: "ep_folding_231"
  top: "ep_upsample_232"
  name: "upsample_390"
  type: UPSAMPLING
  upsampling_param {
    kernel_size: 2
  }
}
layers {
  bottom: "ep_upsample_232"
  top: "ep_conv_5x5_1_233"
  name: "conv_5x5_1_406"
  type: CONVOLUTION
  blobs_lr: 1
  blobs_lr: 2
  weight_decay: 1
  weight_decay: 0
  convolution_param {
    num_output: 64
    pad: 2
    kernel_size: 5
    stride: 1
    weight_filler {
      type: "xavier"
    }
    bias_filler {
      type: "constant"
      value: 0.1
    }
  }
  param: "dec_mask_conv1_w"
  param: "dec_mask_conv1_b"
}
layers {
  bottom: "ep_conv_5x5_1_233"
  top: "ep_conv_5x5_1_233"
  name: "relu_422"
  type: RELU
}
layers {
  bottom: "ep_conv_5x5_1_233"
  top: "ep_upsample_234"
  name: "upsample_438"
  type: UPSAMPLING
  upsampling_param {
    kernel_size: 2
  }
}
layers {
  bottom: "ep_upsample_234"
  top: "ep_conv_5x5_1_235"
  name: "conv_5x5_1_454"
  type: CONVOLUTION
  blobs_lr: 1
  blobs_lr: 2
  weight_decay: 1
  weight_decay: 0
  convolution_param {
    num_output: 32
    pad: 2
    kernel_size: 5
    stride: 1
    weight_filler {
      type: "xavier"
    }
    bias_filler {
      type: "constant"
      value: 0.1
    }
  }
  param: "dec_mask_conv2_w"
  param: "dec_mask_conv2_b"
}
layers {
  bottom: "ep_conv_5x5_1_235"
  top: "ep_conv_5x5_1_235"
  name: "relu_470"
  type: RELU
}
layers {
  bottom: "ep_conv_5x5_1_235"
  top: "ep_upsample_236"
  name: "upsample_486"
  type: UPSAMPLING
  upsampling_param {
    kernel_size: 2
  }
}
layers {
  bottom: "ep_upsample_236"
  top: "ep_t8_conv_5x5_1_436"
  name: "t8_conv_5x5_1_502"
  type: CONVOLUTION
  blobs_lr: 1
  blobs_lr: 2
  weight_decay: 1
  weight_decay: 0
  convolution_param {
    num_output: 1
    pad: 2
    kernel_size: 5
    stride: 1
    weight_filler {
      type: "xavier"
    }
    bias_filler {
      type: "constant"
      value: 0.1
    }
  }
  param: "dec_mask_conv3_w"
  param: "dec_mask_conv3_b"
}
layers {
  bottom: "ep_split_237"
  bottom: "rotations9"
  top: "ep_tensor_product_238"
  name: "tensor_product_23"
  type: TENSOR_PRODUCT
  blobs_lr: 1
  blobs_lr: 2
  weight_decay: 1
  weight_decay: 0
  inner_product_param {
    num_output: 512
    weight_filler {
      type: "xavier"
    }
    bias_filler {
      type: "constant"
      value: 0.1
    }
  }
  param: "tensor_view_w"
  param: "tensor_view_b"
}
layers {
  bottom: "ep_tensor_product_238"
  top: "ep_relu_239"
  name: "relu_39"
  type: RELU
}
layers {
  bottom: "ep_relu_239"
  top: "ep_split_241"
  top: "ep_split_262"
  name: "split_55"
  type: SPLIT
}
layers {
  bottom: "ep_split_240"
  bottom: "ep_split_241"
  top: "ep_concat_242"
  name: "concat_71"
  type: CONCAT
  concat_param {
    concat_dim: 1
  }
}
layers {
  bottom: "ep_concat_242"
  top: "ep_inner_product_243"
  name: "inner_product_87"
  type: INNER_PRODUCT
  blobs_lr: 1
  blobs_lr: 2
  weight_decay: 1
  weight_decay: 0
  inner_product_param {
    num_output: 1024
    weight_filler {
      type: "xavier"
    }
    bias_filler {
      type: "constant"
      value: 0.1
    }
  }
  param: "dec_fc1_w"
  param: "dec_fc1_b"
}
layers {
  bottom: "ep_inner_product_243"
  top: "ep_inner_product_243"
  name: "relu_103"
  type: RELU
}
layers {
  bottom: "ep_inner_product_243"
  top: "ep_inner_product_244"
  name: "inner_product_119"
  type: INNER_PRODUCT
  blobs_lr: 1
  blobs_lr: 2
  weight_decay: 1
  weight_decay: 0
  inner_product_param {
    num_output: 1024
    weight_filler {
      type: "xavier"
    }
    bias_filler {
      type: "constant"
      value: 0.1
    }
  }
  param: "dec_fc2_w"
  param: "dec_fc2_b"
}
layers {
  bottom: "ep_inner_product_244"
  top: "ep_relu_245"
  name: "relu_135"
  type: RELU
}
layers {
  bottom: "ep_relu_245"
  top: "ep_split_246"
  top: "ep_split_254"
  name: "split_151"
  type: SPLIT
}
layers {
  bottom: "ep_split_246"
  top: "ep_inner_product_247"
  name: "inner_product_167"
  type: INNER_PRODUCT
  blobs_lr: 1
  blobs_lr: 2
  weight_decay: 1
  weight_decay: 0
  inner_product_param {
    num_output: 16384
    weight_filler {
      type: "xavier"
    }
    bias_filler {
      type: "constant"
      value: 0.1
    }
  }
  param: "dec_img_fc1_w"
  param: "dec_img_fc1_b"
}
layers {
  bottom: "ep_inner_product_247"
  top: "ep_inner_product_247"
  name: "relu_183"
  type: RELU
}
layers {
  bottom: "ep_inner_product_247"
  top: "ep_folding_248"
  name: "folding_199"
  type: FOLDING
  folding_param {
    channels_folded: 256
    height_folded: 8
    width_folded: 8
  }
}
layers {
  bottom: "ep_folding_248"
  bottom: "mask1"
  top: "ep_unpool_2x2_2_249"
  name: "unpool_2x2_2_215"
  type: UNPOOLING
  unpooling_param {
    unpool: MAX
    kernel_size: 2
    stride: 2
  }
}
layers {
  bottom: "ep_unpool_2x2_2_249"
  top: "ep_conv_5x5_1_250"
  name: "conv_5x5_1_231"
  type: CONVOLUTION
  blobs_lr: 1
  blobs_lr: 2
  weight_decay: 1
  weight_decay: 0
  convolution_param {
    num_output: 128
    pad: 2
    kernel_size: 5
    stride: 1
    weight_filler {
      type: "xavier"
    }
    bias_filler {
      type: "constant"
      value: 0.1
    }
  }
  param: "dec_img_conv1_w"
  param: "dec_img_conv1_b"
}
layers {
  bottom: "ep_conv_5x5_1_250"
  top: "ep_conv_5x5_1_250"
  name: "relu_247"
  type: RELU
}
layers {
  bottom: "ep_conv_5x5_1_250"
  bottom: "mask2"
  top: "ep_unpool_2x2_2_251"
  name: "unpool_2x2_2_263"
  type: UNPOOLING
  unpooling_param {
    unpool: MAX
    kernel_size: 2
    stride: 2
  }
}
layers {
  bottom: "ep_unpool_2x2_2_251"
  top: "ep_conv_5x5_1_252"
  name: "conv_5x5_1_279"
  type: CONVOLUTION
  blobs_lr: 1
  blobs_lr: 2
  weight_decay: 1
  weight_decay: 0
  convolution_param {
    num_output: 64
    pad: 2
    kernel_size: 5
    stride: 1
    weight_filler {
      type: "xavier"
    }
    bias_filler {
      type: "constant"
      value: 0.1
    }
  }
  param: "dec_img_conv2_w"
  param: "dec_img_conv2_b"
}
layers {
  bottom: "ep_conv_5x5_1_252"
  top: "ep_conv_5x5_1_252"
  name: "relu_295"
  type: RELU
}
layers {
  bottom: "ep_conv_5x5_1_252"
  bottom: "mask3"
  top: "ep_unpool_2x2_2_253"
  name: "unpool_2x2_2_311"
  type: UNPOOLING
  unpooling_param {
    unpool: MAX
    kernel_size: 2
    stride: 2
  }
}
layers {
  bottom: "ep_unpool_2x2_2_253"
  top: "ep_t9_conv_5x5_1_421"
  name: "t9_conv_5x5_1_327"
  type: CONVOLUTION
  blobs_lr: 1
  blobs_lr: 2
  weight_decay: 1
  weight_decay: 0
  convolution_param {
    num_output: 3
    pad: 2
    kernel_size: 5
    stride: 1
    weight_filler {
      type: "xavier"
    }
    bias_filler {
      type: "constant"
      value: 0.1
    }
  }
  param: "dec_img_conv3_w"
  param: "dec_img_conv3_b"
}
layers {
  bottom: "ep_split_254"
  top: "ep_inner_product_255"
  name: "inner_product_343"
  type: INNER_PRODUCT
  blobs_lr: 1
  blobs_lr: 2
  weight_decay: 1
  weight_decay: 0
  inner_product_param {
    num_output: 8192
    weight_filler {
      type: "xavier"
    }
    bias_filler {
      type: "constant"
      value: 0.1
    }
  }
  param: "dec_mask_fc1_w"
  param: "dec_mask_fc1_b"
}
layers {
  bottom: "ep_inner_product_255"
  top: "ep_inner_product_255"
  name: "relu_359"
  type: RELU
}
layers {
  bottom: "ep_inner_product_255"
  top: "ep_folding_256"
  name: "folding_375"
  type: FOLDING
  folding_param {
    channels_folded: 128
    height_folded: 8
    width_folded: 8
  }
}
layers {
  bottom: "ep_folding_256"
  top: "ep_upsample_257"
  name: "upsample_391"
  type: UPSAMPLING
  upsampling_param {
    kernel_size: 2
  }
}
layers {
  bottom: "ep_upsample_257"
  top: "ep_conv_5x5_1_258"
  name: "conv_5x5_1_407"
  type: CONVOLUTION
  blobs_lr: 1
  blobs_lr: 2
  weight_decay: 1
  weight_decay: 0
  convolution_param {
    num_output: 64
    pad: 2
    kernel_size: 5
    stride: 1
    weight_filler {
      type: "xavier"
    }
    bias_filler {
      type: "constant"
      value: 0.1
    }
  }
  param: "dec_mask_conv1_w"
  param: "dec_mask_conv1_b"
}
layers {
  bottom: "ep_conv_5x5_1_258"
  top: "ep_conv_5x5_1_258"
  name: "relu_423"
  type: RELU
}
layers {
  bottom: "ep_conv_5x5_1_258"
  top: "ep_upsample_259"
  name: "upsample_439"
  type: UPSAMPLING
  upsampling_param {
    kernel_size: 2
  }
}
layers {
  bottom: "ep_upsample_259"
  top: "ep_conv_5x5_1_260"
  name: "conv_5x5_1_455"
  type: CONVOLUTION
  blobs_lr: 1
  blobs_lr: 2
  weight_decay: 1
  weight_decay: 0
  convolution_param {
    num_output: 32
    pad: 2
    kernel_size: 5
    stride: 1
    weight_filler {
      type: "xavier"
    }
    bias_filler {
      type: "constant"
      value: 0.1
    }
  }
  param: "dec_mask_conv2_w"
  param: "dec_mask_conv2_b"
}
layers {
  bottom: "ep_conv_5x5_1_260"
  top: "ep_conv_5x5_1_260"
  name: "relu_471"
  type: RELU
}
layers {
  bottom: "ep_conv_5x5_1_260"
  top: "ep_upsample_261"
  name: "upsample_487"
  type: UPSAMPLING
  upsampling_param {
    kernel_size: 2
  }
}
layers {
  bottom: "ep_upsample_261"
  top: "ep_t9_conv_5x5_1_437"
  name: "t9_conv_5x5_1_503"
  type: CONVOLUTION
  blobs_lr: 1
  blobs_lr: 2
  weight_decay: 1
  weight_decay: 0
  convolution_param {
    num_output: 1
    pad: 2
    kernel_size: 5
    stride: 1
    weight_filler {
      type: "xavier"
    }
    bias_filler {
      type: "constant"
      value: 0.1
    }
  }
  param: "dec_mask_conv3_w"
  param: "dec_mask_conv3_b"
}
layers {
  bottom: "ep_split_262"
  bottom: "rotations10"
  top: "ep_tensor_product_263"
  name: "tensor_product_24"
  type: TENSOR_PRODUCT
  blobs_lr: 1
  blobs_lr: 2
  weight_decay: 1
  weight_decay: 0
  inner_product_param {
    num_output: 512
    weight_filler {
      type: "xavier"
    }
    bias_filler {
      type: "constant"
      value: 0.1
    }
  }
  param: "tensor_view_w"
  param: "tensor_view_b"
}
layers {
  bottom: "ep_tensor_product_263"
  top: "ep_relu_264"
  name: "relu_40"
  type: RELU
}
layers {
  bottom: "ep_relu_264"
  top: "ep_split_266"
  top: "ep_split_287"
  name: "split_56"
  type: SPLIT
}
layers {
  bottom: "ep_split_265"
  bottom: "ep_split_266"
  top: "ep_concat_267"
  name: "concat_72"
  type: CONCAT
  concat_param {
    concat_dim: 1
  }
}
layers {
  bottom: "ep_concat_267"
  top: "ep_inner_product_268"
  name: "inner_product_88"
  type: INNER_PRODUCT
  blobs_lr: 1
  blobs_lr: 2
  weight_decay: 1
  weight_decay: 0
  inner_product_param {
    num_output: 1024
    weight_filler {
      type: "xavier"
    }
    bias_filler {
      type: "constant"
      value: 0.1
    }
  }
  param: "dec_fc1_w"
  param: "dec_fc1_b"
}
layers {
  bottom: "ep_inner_product_268"
  top: "ep_inner_product_268"
  name: "relu_104"
  type: RELU
}
layers {
  bottom: "ep_inner_product_268"
  top: "ep_inner_product_269"
  name: "inner_product_120"
  type: INNER_PRODUCT
  blobs_lr: 1
  blobs_lr: 2
  weight_decay: 1
  weight_decay: 0
  inner_product_param {
    num_output: 1024
    weight_filler {
      type: "xavier"
    }
    bias_filler {
      type: "constant"
      value: 0.1
    }
  }
  param: "dec_fc2_w"
  param: "dec_fc2_b"
}
layers {
  bottom: "ep_inner_product_269"
  top: "ep_relu_270"
  name: "relu_136"
  type: RELU
}
layers {
  bottom: "ep_relu_270"
  top: "ep_split_271"
  top: "ep_split_279"
  name: "split_152"
  type: SPLIT
}
layers {
  bottom: "ep_split_271"
  top: "ep_inner_product_272"
  name: "inner_product_168"
  type: INNER_PRODUCT
  blobs_lr: 1
  blobs_lr: 2
  weight_decay: 1
  weight_decay: 0
  inner_product_param {
    num_output: 16384
    weight_filler {
      type: "xavier"
    }
    bias_filler {
      type: "constant"
      value: 0.1
    }
  }
  param: "dec_img_fc1_w"
  param: "dec_img_fc1_b"
}
layers {
  bottom: "ep_inner_product_272"
  top: "ep_inner_product_272"
  name: "relu_184"
  type: RELU
}
layers {
  bottom: "ep_inner_product_272"
  top: "ep_folding_273"
  name: "folding_200"
  type: FOLDING
  folding_param {
    channels_folded: 256
    height_folded: 8
    width_folded: 8
  }
}
layers {
  bottom: "ep_folding_273"
  bottom: "mask1"
  top: "ep_unpool_2x2_2_274"
  name: "unpool_2x2_2_216"
  type: UNPOOLING
  unpooling_param {
    unpool: MAX
    kernel_size: 2
    stride: 2
  }
}
layers {
  bottom: "ep_unpool_2x2_2_274"
  top: "ep_conv_5x5_1_275"
  name: "conv_5x5_1_232"
  type: CONVOLUTION
  blobs_lr: 1
  blobs_lr: 2
  weight_decay: 1
  weight_decay: 0
  convolution_param {
    num_output: 128
    pad: 2
    kernel_size: 5
    stride: 1
    weight_filler {
      type: "xavier"
    }
    bias_filler {
      type: "constant"
      value: 0.1
    }
  }
  param: "dec_img_conv1_w"
  param: "dec_img_conv1_b"
}
layers {
  bottom: "ep_conv_5x5_1_275"
  top: "ep_conv_5x5_1_275"
  name: "relu_248"
  type: RELU
}
layers {
  bottom: "ep_conv_5x5_1_275"
  bottom: "mask2"
  top: "ep_unpool_2x2_2_276"
  name: "unpool_2x2_2_264"
  type: UNPOOLING
  unpooling_param {
    unpool: MAX
    kernel_size: 2
    stride: 2
  }
}
layers {
  bottom: "ep_unpool_2x2_2_276"
  top: "ep_conv_5x5_1_277"
  name: "conv_5x5_1_280"
  type: CONVOLUTION
  blobs_lr: 1
  blobs_lr: 2
  weight_decay: 1
  weight_decay: 0
  convolution_param {
    num_output: 64
    pad: 2
    kernel_size: 5
    stride: 1
    weight_filler {
      type: "xavier"
    }
    bias_filler {
      type: "constant"
      value: 0.1
    }
  }
  param: "dec_img_conv2_w"
  param: "dec_img_conv2_b"
}
layers {
  bottom: "ep_conv_5x5_1_277"
  top: "ep_conv_5x5_1_277"
  name: "relu_296"
  type: RELU
}
layers {
  bottom: "ep_conv_5x5_1_277"
  bottom: "mask3"
  top: "ep_unpool_2x2_2_278"
  name: "unpool_2x2_2_312"
  type: UNPOOLING
  unpooling_param {
    unpool: MAX
    kernel_size: 2
    stride: 2
  }
}
layers {
  bottom: "ep_unpool_2x2_2_278"
  top: "ep_t10_conv_5x5_1_422"
  name: "t10_conv_5x5_1_328"
  type: CONVOLUTION
  blobs_lr: 1
  blobs_lr: 2
  weight_decay: 1
  weight_decay: 0
  convolution_param {
    num_output: 3
    pad: 2
    kernel_size: 5
    stride: 1
    weight_filler {
      type: "xavier"
    }
    bias_filler {
      type: "constant"
      value: 0.1
    }
  }
  param: "dec_img_conv3_w"
  param: "dec_img_conv3_b"
}
layers {
  bottom: "ep_split_279"
  top: "ep_inner_product_280"
  name: "inner_product_344"
  type: INNER_PRODUCT
  blobs_lr: 1
  blobs_lr: 2
  weight_decay: 1
  weight_decay: 0
  inner_product_param {
    num_output: 8192
    weight_filler {
      type: "xavier"
    }
    bias_filler {
      type: "constant"
      value: 0.1
    }
  }
  param: "dec_mask_fc1_w"
  param: "dec_mask_fc1_b"
}
layers {
  bottom: "ep_inner_product_280"
  top: "ep_inner_product_280"
  name: "relu_360"
  type: RELU
}
layers {
  bottom: "ep_inner_product_280"
  top: "ep_folding_281"
  name: "folding_376"
  type: FOLDING
  folding_param {
    channels_folded: 128
    height_folded: 8
    width_folded: 8
  }
}
layers {
  bottom: "ep_folding_281"
  top: "ep_upsample_282"
  name: "upsample_392"
  type: UPSAMPLING
  upsampling_param {
    kernel_size: 2
  }
}
layers {
  bottom: "ep_upsample_282"
  top: "ep_conv_5x5_1_283"
  name: "conv_5x5_1_408"
  type: CONVOLUTION
  blobs_lr: 1
  blobs_lr: 2
  weight_decay: 1
  weight_decay: 0
  convolution_param {
    num_output: 64
    pad: 2
    kernel_size: 5
    stride: 1
    weight_filler {
      type: "xavier"
    }
    bias_filler {
      type: "constant"
      value: 0.1
    }
  }
  param: "dec_mask_conv1_w"
  param: "dec_mask_conv1_b"
}
layers {
  bottom: "ep_conv_5x5_1_283"
  top: "ep_conv_5x5_1_283"
  name: "relu_424"
  type: RELU
}
layers {
  bottom: "ep_conv_5x5_1_283"
  top: "ep_upsample_284"
  name: "upsample_440"
  type: UPSAMPLING
  upsampling_param {
    kernel_size: 2
  }
}
layers {
  bottom: "ep_upsample_284"
  top: "ep_conv_5x5_1_285"
  name: "conv_5x5_1_456"
  type: CONVOLUTION
  blobs_lr: 1
  blobs_lr: 2
  weight_decay: 1
  weight_decay: 0
  convolution_param {
    num_output: 32
    pad: 2
    kernel_size: 5
    stride: 1
    weight_filler {
      type: "xavier"
    }
    bias_filler {
      type: "constant"
      value: 0.1
    }
  }
  param: "dec_mask_conv2_w"
  param: "dec_mask_conv2_b"
}
layers {
  bottom: "ep_conv_5x5_1_285"
  top: "ep_conv_5x5_1_285"
  name: "relu_472"
  type: RELU
}
layers {
  bottom: "ep_conv_5x5_1_285"
  top: "ep_upsample_286"
  name: "upsample_488"
  type: UPSAMPLING
  upsampling_param {
    kernel_size: 2
  }
}
layers {
  bottom: "ep_upsample_286"
  top: "ep_t10_conv_5x5_1_438"
  name: "t10_conv_5x5_1_504"
  type: CONVOLUTION
  blobs_lr: 1
  blobs_lr: 2
  weight_decay: 1
  weight_decay: 0
  convolution_param {
    num_output: 1
    pad: 2
    kernel_size: 5
    stride: 1
    weight_filler {
      type: "xavier"
    }
    bias_filler {
      type: "constant"
      value: 0.1
    }
  }
  param: "dec_mask_conv3_w"
  param: "dec_mask_conv3_b"
}
layers {
  bottom: "ep_split_287"
  bottom: "rotations11"
  top: "ep_tensor_product_288"
  name: "tensor_product_25"
  type: TENSOR_PRODUCT
  blobs_lr: 1
  blobs_lr: 2
  weight_decay: 1
  weight_decay: 0
  inner_product_param {
    num_output: 512
    weight_filler {
      type: "xavier"
    }
    bias_filler {
      type: "constant"
      value: 0.1
    }
  }
  param: "tensor_view_w"
  param: "tensor_view_b"
}
layers {
  bottom: "ep_tensor_product_288"
  top: "ep_relu_289"
  name: "relu_41"
  type: RELU
}
layers {
  bottom: "ep_relu_289"
  top: "ep_split_291"
  top: "ep_split_312"
  name: "split_57"
  type: SPLIT
}
layers {
  bottom: "ep_split_290"
  bottom: "ep_split_291"
  top: "ep_concat_292"
  name: "concat_73"
  type: CONCAT
  concat_param {
    concat_dim: 1
  }
}
layers {
  bottom: "ep_concat_292"
  top: "ep_inner_product_293"
  name: "inner_product_89"
  type: INNER_PRODUCT
  blobs_lr: 1
  blobs_lr: 2
  weight_decay: 1
  weight_decay: 0
  inner_product_param {
    num_output: 1024
    weight_filler {
      type: "xavier"
    }
    bias_filler {
      type: "constant"
      value: 0.1
    }
  }
  param: "dec_fc1_w"
  param: "dec_fc1_b"
}
layers {
  bottom: "ep_inner_product_293"
  top: "ep_inner_product_293"
  name: "relu_105"
  type: RELU
}
layers {
  bottom: "ep_inner_product_293"
  top: "ep_inner_product_294"
  name: "inner_product_121"
  type: INNER_PRODUCT
  blobs_lr: 1
  blobs_lr: 2
  weight_decay: 1
  weight_decay: 0
  inner_product_param {
    num_output: 1024
    weight_filler {
      type: "xavier"
    }
    bias_filler {
      type: "constant"
      value: 0.1
    }
  }
  param: "dec_fc2_w"
  param: "dec_fc2_b"
}
layers {
  bottom: "ep_inner_product_294"
  top: "ep_relu_295"
  name: "relu_137"
  type: RELU
}
layers {
  bottom: "ep_relu_295"
  top: "ep_split_296"
  top: "ep_split_304"
  name: "split_153"
  type: SPLIT
}
layers {
  bottom: "ep_split_296"
  top: "ep_inner_product_297"
  name: "inner_product_169"
  type: INNER_PRODUCT
  blobs_lr: 1
  blobs_lr: 2
  weight_decay: 1
  weight_decay: 0
  inner_product_param {
    num_output: 16384
    weight_filler {
      type: "xavier"
    }
    bias_filler {
      type: "constant"
      value: 0.1
    }
  }
  param: "dec_img_fc1_w"
  param: "dec_img_fc1_b"
}
layers {
  bottom: "ep_inner_product_297"
  top: "ep_inner_product_297"
  name: "relu_185"
  type: RELU
}
layers {
  bottom: "ep_inner_product_297"
  top: "ep_folding_298"
  name: "folding_201"
  type: FOLDING
  folding_param {
    channels_folded: 256
    height_folded: 8
    width_folded: 8
  }
}
layers {
  bottom: "ep_folding_298"
  bottom: "mask1"
  top: "ep_unpool_2x2_2_299"
  name: "unpool_2x2_2_217"
  type: UNPOOLING
  unpooling_param {
    unpool: MAX
    kernel_size: 2
    stride: 2
  }
}
layers {
  bottom: "ep_unpool_2x2_2_299"
  top: "ep_conv_5x5_1_300"
  name: "conv_5x5_1_233"
  type: CONVOLUTION
  blobs_lr: 1
  blobs_lr: 2
  weight_decay: 1
  weight_decay: 0
  convolution_param {
    num_output: 128
    pad: 2
    kernel_size: 5
    stride: 1
    weight_filler {
      type: "xavier"
    }
    bias_filler {
      type: "constant"
      value: 0.1
    }
  }
  param: "dec_img_conv1_w"
  param: "dec_img_conv1_b"
}
layers {
  bottom: "ep_conv_5x5_1_300"
  top: "ep_conv_5x5_1_300"
  name: "relu_249"
  type: RELU
}
layers {
  bottom: "ep_conv_5x5_1_300"
  bottom: "mask2"
  top: "ep_unpool_2x2_2_301"
  name: "unpool_2x2_2_265"
  type: UNPOOLING
  unpooling_param {
    unpool: MAX
    kernel_size: 2
    stride: 2
  }
}
layers {
  bottom: "ep_unpool_2x2_2_301"
  top: "ep_conv_5x5_1_302"
  name: "conv_5x5_1_281"
  type: CONVOLUTION
  blobs_lr: 1
  blobs_lr: 2
  weight_decay: 1
  weight_decay: 0
  convolution_param {
    num_output: 64
    pad: 2
    kernel_size: 5
    stride: 1
    weight_filler {
      type: "xavier"
    }
    bias_filler {
      type: "constant"
      value: 0.1
    }
  }
  param: "dec_img_conv2_w"
  param: "dec_img_conv2_b"
}
layers {
  bottom: "ep_conv_5x5_1_302"
  top: "ep_conv_5x5_1_302"
  name: "relu_297"
  type: RELU
}
layers {
  bottom: "ep_conv_5x5_1_302"
  bottom: "mask3"
  top: "ep_unpool_2x2_2_303"
  name: "unpool_2x2_2_313"
  type: UNPOOLING
  unpooling_param {
    unpool: MAX
    kernel_size: 2
    stride: 2
  }
}
layers {
  bottom: "ep_unpool_2x2_2_303"
  top: "ep_t11_conv_5x5_1_423"
  name: "t11_conv_5x5_1_329"
  type: CONVOLUTION
  blobs_lr: 1
  blobs_lr: 2
  weight_decay: 1
  weight_decay: 0
  convolution_param {
    num_output: 3
    pad: 2
    kernel_size: 5
    stride: 1
    weight_filler {
      type: "xavier"
    }
    bias_filler {
      type: "constant"
      value: 0.1
    }
  }
  param: "dec_img_conv3_w"
  param: "dec_img_conv3_b"
}
layers {
  bottom: "ep_split_304"
  top: "ep_inner_product_305"
  name: "inner_product_345"
  type: INNER_PRODUCT
  blobs_lr: 1
  blobs_lr: 2
  weight_decay: 1
  weight_decay: 0
  inner_product_param {
    num_output: 8192
    weight_filler {
      type: "xavier"
    }
    bias_filler {
      type: "constant"
      value: 0.1
    }
  }
  param: "dec_mask_fc1_w"
  param: "dec_mask_fc1_b"
}
layers {
  bottom: "ep_inner_product_305"
  top: "ep_inner_product_305"
  name: "relu_361"
  type: RELU
}
layers {
  bottom: "ep_inner_product_305"
  top: "ep_folding_306"
  name: "folding_377"
  type: FOLDING
  folding_param {
    channels_folded: 128
    height_folded: 8
    width_folded: 8
  }
}
layers {
  bottom: "ep_folding_306"
  top: "ep_upsample_307"
  name: "upsample_393"
  type: UPSAMPLING
  upsampling_param {
    kernel_size: 2
  }
}
layers {
  bottom: "ep_upsample_307"
  top: "ep_conv_5x5_1_308"
  name: "conv_5x5_1_409"
  type: CONVOLUTION
  blobs_lr: 1
  blobs_lr: 2
  weight_decay: 1
  weight_decay: 0
  convolution_param {
    num_output: 64
    pad: 2
    kernel_size: 5
    stride: 1
    weight_filler {
      type: "xavier"
    }
    bias_filler {
      type: "constant"
      value: 0.1
    }
  }
  param: "dec_mask_conv1_w"
  param: "dec_mask_conv1_b"
}
layers {
  bottom: "ep_conv_5x5_1_308"
  top: "ep_conv_5x5_1_308"
  name: "relu_425"
  type: RELU
}
layers {
  bottom: "ep_conv_5x5_1_308"
  top: "ep_upsample_309"
  name: "upsample_441"
  type: UPSAMPLING
  upsampling_param {
    kernel_size: 2
  }
}
layers {
  bottom: "ep_upsample_309"
  top: "ep_conv_5x5_1_310"
  name: "conv_5x5_1_457"
  type: CONVOLUTION
  blobs_lr: 1
  blobs_lr: 2
  weight_decay: 1
  weight_decay: 0
  convolution_param {
    num_output: 32
    pad: 2
    kernel_size: 5
    stride: 1
    weight_filler {
      type: "xavier"
    }
    bias_filler {
      type: "constant"
      value: 0.1
    }
  }
  param: "dec_mask_conv2_w"
  param: "dec_mask_conv2_b"
}
layers {
  bottom: "ep_conv_5x5_1_310"
  top: "ep_conv_5x5_1_310"
  name: "relu_473"
  type: RELU
}
layers {
  bottom: "ep_conv_5x5_1_310"
  top: "ep_upsample_311"
  name: "upsample_489"
  type: UPSAMPLING
  upsampling_param {
    kernel_size: 2
  }
}
layers {
  bottom: "ep_upsample_311"
  top: "ep_t11_conv_5x5_1_439"
  name: "t11_conv_5x5_1_505"
  type: CONVOLUTION
  blobs_lr: 1
  blobs_lr: 2
  weight_decay: 1
  weight_decay: 0
  convolution_param {
    num_output: 1
    pad: 2
    kernel_size: 5
    stride: 1
    weight_filler {
      type: "xavier"
    }
    bias_filler {
      type: "constant"
      value: 0.1
    }
  }
  param: "dec_mask_conv3_w"
  param: "dec_mask_conv3_b"
}
layers {
  bottom: "ep_split_312"
  bottom: "rotations12"
  top: "ep_tensor_product_313"
  name: "tensor_product_26"
  type: TENSOR_PRODUCT
  blobs_lr: 1
  blobs_lr: 2
  weight_decay: 1
  weight_decay: 0
  inner_product_param {
    num_output: 512
    weight_filler {
      type: "xavier"
    }
    bias_filler {
      type: "constant"
      value: 0.1
    }
  }
  param: "tensor_view_w"
  param: "tensor_view_b"
}
layers {
  bottom: "ep_tensor_product_313"
  top: "ep_relu_314"
  name: "relu_42"
  type: RELU
}
layers {
  bottom: "ep_relu_314"
  top: "ep_split_316"
  top: "ep_split_337"
  name: "split_58"
  type: SPLIT
}
layers {
  bottom: "ep_split_315"
  bottom: "ep_split_316"
  top: "ep_concat_317"
  name: "concat_74"
  type: CONCAT
  concat_param {
    concat_dim: 1
  }
}
layers {
  bottom: "ep_concat_317"
  top: "ep_inner_product_318"
  name: "inner_product_90"
  type: INNER_PRODUCT
  blobs_lr: 1
  blobs_lr: 2
  weight_decay: 1
  weight_decay: 0
  inner_product_param {
    num_output: 1024
    weight_filler {
      type: "xavier"
    }
    bias_filler {
      type: "constant"
      value: 0.1
    }
  }
  param: "dec_fc1_w"
  param: "dec_fc1_b"
}
layers {
  bottom: "ep_inner_product_318"
  top: "ep_inner_product_318"
  name: "relu_106"
  type: RELU
}
layers {
  bottom: "ep_inner_product_318"
  top: "ep_inner_product_319"
  name: "inner_product_122"
  type: INNER_PRODUCT
  blobs_lr: 1
  blobs_lr: 2
  weight_decay: 1
  weight_decay: 0
  inner_product_param {
    num_output: 1024
    weight_filler {
      type: "xavier"
    }
    bias_filler {
      type: "constant"
      value: 0.1
    }
  }
  param: "dec_fc2_w"
  param: "dec_fc2_b"
}
layers {
  bottom: "ep_inner_product_319"
  top: "ep_relu_320"
  name: "relu_138"
  type: RELU
}
layers {
  bottom: "ep_relu_320"
  top: "ep_split_321"
  top: "ep_split_329"
  name: "split_154"
  type: SPLIT
}
layers {
  bottom: "ep_split_321"
  top: "ep_inner_product_322"
  name: "inner_product_170"
  type: INNER_PRODUCT
  blobs_lr: 1
  blobs_lr: 2
  weight_decay: 1
  weight_decay: 0
  inner_product_param {
    num_output: 16384
    weight_filler {
      type: "xavier"
    }
    bias_filler {
      type: "constant"
      value: 0.1
    }
  }
  param: "dec_img_fc1_w"
  param: "dec_img_fc1_b"
}
layers {
  bottom: "ep_inner_product_322"
  top: "ep_inner_product_322"
  name: "relu_186"
  type: RELU
}
layers {
  bottom: "ep_inner_product_322"
  top: "ep_folding_323"
  name: "folding_202"
  type: FOLDING
  folding_param {
    channels_folded: 256
    height_folded: 8
    width_folded: 8
  }
}
layers {
  bottom: "ep_folding_323"
  bottom: "mask1"
  top: "ep_unpool_2x2_2_324"
  name: "unpool_2x2_2_218"
  type: UNPOOLING
  unpooling_param {
    unpool: MAX
    kernel_size: 2
    stride: 2
  }
}
layers {
  bottom: "ep_unpool_2x2_2_324"
  top: "ep_conv_5x5_1_325"
  name: "conv_5x5_1_234"
  type: CONVOLUTION
  blobs_lr: 1
  blobs_lr: 2
  weight_decay: 1
  weight_decay: 0
  convolution_param {
    num_output: 128
    pad: 2
    kernel_size: 5
    stride: 1
    weight_filler {
      type: "xavier"
    }
    bias_filler {
      type: "constant"
      value: 0.1
    }
  }
  param: "dec_img_conv1_w"
  param: "dec_img_conv1_b"
}
layers {
  bottom: "ep_conv_5x5_1_325"
  top: "ep_conv_5x5_1_325"
  name: "relu_250"
  type: RELU
}
layers {
  bottom: "ep_conv_5x5_1_325"
  bottom: "mask2"
  top: "ep_unpool_2x2_2_326"
  name: "unpool_2x2_2_266"
  type: UNPOOLING
  unpooling_param {
    unpool: MAX
    kernel_size: 2
    stride: 2
  }
}
layers {
  bottom: "ep_unpool_2x2_2_326"
  top: "ep_conv_5x5_1_327"
  name: "conv_5x5_1_282"
  type: CONVOLUTION
  blobs_lr: 1
  blobs_lr: 2
  weight_decay: 1
  weight_decay: 0
  convolution_param {
    num_output: 64
    pad: 2
    kernel_size: 5
    stride: 1
    weight_filler {
      type: "xavier"
    }
    bias_filler {
      type: "constant"
      value: 0.1
    }
  }
  param: "dec_img_conv2_w"
  param: "dec_img_conv2_b"
}
layers {
  bottom: "ep_conv_5x5_1_327"
  top: "ep_conv_5x5_1_327"
  name: "relu_298"
  type: RELU
}
layers {
  bottom: "ep_conv_5x5_1_327"
  bottom: "mask3"
  top: "ep_unpool_2x2_2_328"
  name: "unpool_2x2_2_314"
  type: UNPOOLING
  unpooling_param {
    unpool: MAX
    kernel_size: 2
    stride: 2
  }
}
layers {
  bottom: "ep_unpool_2x2_2_328"
  top: "ep_t12_conv_5x5_1_424"
  name: "t12_conv_5x5_1_330"
  type: CONVOLUTION
  blobs_lr: 1
  blobs_lr: 2
  weight_decay: 1
  weight_decay: 0
  convolution_param {
    num_output: 3
    pad: 2
    kernel_size: 5
    stride: 1
    weight_filler {
      type: "xavier"
    }
    bias_filler {
      type: "constant"
      value: 0.1
    }
  }
  param: "dec_img_conv3_w"
  param: "dec_img_conv3_b"
}
layers {
  bottom: "ep_split_329"
  top: "ep_inner_product_330"
  name: "inner_product_346"
  type: INNER_PRODUCT
  blobs_lr: 1
  blobs_lr: 2
  weight_decay: 1
  weight_decay: 0
  inner_product_param {
    num_output: 8192
    weight_filler {
      type: "xavier"
    }
    bias_filler {
      type: "constant"
      value: 0.1
    }
  }
  param: "dec_mask_fc1_w"
  param: "dec_mask_fc1_b"
}
layers {
  bottom: "ep_inner_product_330"
  top: "ep_inner_product_330"
  name: "relu_362"
  type: RELU
}
layers {
  bottom: "ep_inner_product_330"
  top: "ep_folding_331"
  name: "folding_378"
  type: FOLDING
  folding_param {
    channels_folded: 128
    height_folded: 8
    width_folded: 8
  }
}
layers {
  bottom: "ep_folding_331"
  top: "ep_upsample_332"
  name: "upsample_394"
  type: UPSAMPLING
  upsampling_param {
    kernel_size: 2
  }
}
layers {
  bottom: "ep_upsample_332"
  top: "ep_conv_5x5_1_333"
  name: "conv_5x5_1_410"
  type: CONVOLUTION
  blobs_lr: 1
  blobs_lr: 2
  weight_decay: 1
  weight_decay: 0
  convolution_param {
    num_output: 64
    pad: 2
    kernel_size: 5
    stride: 1
    weight_filler {
      type: "xavier"
    }
    bias_filler {
      type: "constant"
      value: 0.1
    }
  }
  param: "dec_mask_conv1_w"
  param: "dec_mask_conv1_b"
}
layers {
  bottom: "ep_conv_5x5_1_333"
  top: "ep_conv_5x5_1_333"
  name: "relu_426"
  type: RELU
}
layers {
  bottom: "ep_conv_5x5_1_333"
  top: "ep_upsample_334"
  name: "upsample_442"
  type: UPSAMPLING
  upsampling_param {
    kernel_size: 2
  }
}
layers {
  bottom: "ep_upsample_334"
  top: "ep_conv_5x5_1_335"
  name: "conv_5x5_1_458"
  type: CONVOLUTION
  blobs_lr: 1
  blobs_lr: 2
  weight_decay: 1
  weight_decay: 0
  convolution_param {
    num_output: 32
    pad: 2
    kernel_size: 5
    stride: 1
    weight_filler {
      type: "xavier"
    }
    bias_filler {
      type: "constant"
      value: 0.1
    }
  }
  param: "dec_mask_conv2_w"
  param: "dec_mask_conv2_b"
}
layers {
  bottom: "ep_conv_5x5_1_335"
  top: "ep_conv_5x5_1_335"
  name: "relu_474"
  type: RELU
}
layers {
  bottom: "ep_conv_5x5_1_335"
  top: "ep_upsample_336"
  name: "upsample_490"
  type: UPSAMPLING
  upsampling_param {
    kernel_size: 2
  }
}
layers {
  bottom: "ep_upsample_336"
  top: "ep_t12_conv_5x5_1_440"
  name: "t12_conv_5x5_1_506"
  type: CONVOLUTION
  blobs_lr: 1
  blobs_lr: 2
  weight_decay: 1
  weight_decay: 0
  convolution_param {
    num_output: 1
    pad: 2
    kernel_size: 5
    stride: 1
    weight_filler {
      type: "xavier"
    }
    bias_filler {
      type: "constant"
      value: 0.1
    }
  }
  param: "dec_mask_conv3_w"
  param: "dec_mask_conv3_b"
}
layers {
  bottom: "ep_split_337"
  bottom: "rotations13"
  top: "ep_tensor_product_338"
  name: "tensor_product_27"
  type: TENSOR_PRODUCT
  blobs_lr: 1
  blobs_lr: 2
  weight_decay: 1
  weight_decay: 0
  inner_product_param {
    num_output: 512
    weight_filler {
      type: "xavier"
    }
    bias_filler {
      type: "constant"
      value: 0.1
    }
  }
  param: "tensor_view_w"
  param: "tensor_view_b"
}
layers {
  bottom: "ep_tensor_product_338"
  top: "ep_relu_339"
  name: "relu_43"
  type: RELU
}
layers {
  bottom: "ep_relu_339"
  top: "ep_split_341"
  top: "ep_split_362"
  name: "split_59"
  type: SPLIT
}
layers {
  bottom: "ep_split_340"
  bottom: "ep_split_341"
  top: "ep_concat_342"
  name: "concat_75"
  type: CONCAT
  concat_param {
    concat_dim: 1
  }
}
layers {
  bottom: "ep_concat_342"
  top: "ep_inner_product_343"
  name: "inner_product_91"
  type: INNER_PRODUCT
  blobs_lr: 1
  blobs_lr: 2
  weight_decay: 1
  weight_decay: 0
  inner_product_param {
    num_output: 1024
    weight_filler {
      type: "xavier"
    }
    bias_filler {
      type: "constant"
      value: 0.1
    }
  }
  param: "dec_fc1_w"
  param: "dec_fc1_b"
}
layers {
  bottom: "ep_inner_product_343"
  top: "ep_inner_product_343"
  name: "relu_107"
  type: RELU
}
layers {
  bottom: "ep_inner_product_343"
  top: "ep_inner_product_344"
  name: "inner_product_123"
  type: INNER_PRODUCT
  blobs_lr: 1
  blobs_lr: 2
  weight_decay: 1
  weight_decay: 0
  inner_product_param {
    num_output: 1024
    weight_filler {
      type: "xavier"
    }
    bias_filler {
      type: "constant"
      value: 0.1
    }
  }
  param: "dec_fc2_w"
  param: "dec_fc2_b"
}
layers {
  bottom: "ep_inner_product_344"
  top: "ep_relu_345"
  name: "relu_139"
  type: RELU
}
layers {
  bottom: "ep_relu_345"
  top: "ep_split_346"
  top: "ep_split_354"
  name: "split_155"
  type: SPLIT
}
layers {
  bottom: "ep_split_346"
  top: "ep_inner_product_347"
  name: "inner_product_171"
  type: INNER_PRODUCT
  blobs_lr: 1
  blobs_lr: 2
  weight_decay: 1
  weight_decay: 0
  inner_product_param {
    num_output: 16384
    weight_filler {
      type: "xavier"
    }
    bias_filler {
      type: "constant"
      value: 0.1
    }
  }
  param: "dec_img_fc1_w"
  param: "dec_img_fc1_b"
}
layers {
  bottom: "ep_inner_product_347"
  top: "ep_inner_product_347"
  name: "relu_187"
  type: RELU
}
layers {
  bottom: "ep_inner_product_347"
  top: "ep_folding_348"
  name: "folding_203"
  type: FOLDING
  folding_param {
    channels_folded: 256
    height_folded: 8
    width_folded: 8
  }
}
layers {
  bottom: "ep_folding_348"
  bottom: "mask1"
  top: "ep_unpool_2x2_2_349"
  name: "unpool_2x2_2_219"
  type: UNPOOLING
  unpooling_param {
    unpool: MAX
    kernel_size: 2
    stride: 2
  }
}
layers {
  bottom: "ep_unpool_2x2_2_349"
  top: "ep_conv_5x5_1_350"
  name: "conv_5x5_1_235"
  type: CONVOLUTION
  blobs_lr: 1
  blobs_lr: 2
  weight_decay: 1
  weight_decay: 0
  convolution_param {
    num_output: 128
    pad: 2
    kernel_size: 5
    stride: 1
    weight_filler {
      type: "xavier"
    }
    bias_filler {
      type: "constant"
      value: 0.1
    }
  }
  param: "dec_img_conv1_w"
  param: "dec_img_conv1_b"
}
layers {
  bottom: "ep_conv_5x5_1_350"
  top: "ep_conv_5x5_1_350"
  name: "relu_251"
  type: RELU
}
layers {
  bottom: "ep_conv_5x5_1_350"
  bottom: "mask2"
  top: "ep_unpool_2x2_2_351"
  name: "unpool_2x2_2_267"
  type: UNPOOLING
  unpooling_param {
    unpool: MAX
    kernel_size: 2
    stride: 2
  }
}
layers {
  bottom: "ep_unpool_2x2_2_351"
  top: "ep_conv_5x5_1_352"
  name: "conv_5x5_1_283"
  type: CONVOLUTION
  blobs_lr: 1
  blobs_lr: 2
  weight_decay: 1
  weight_decay: 0
  convolution_param {
    num_output: 64
    pad: 2
    kernel_size: 5
    stride: 1
    weight_filler {
      type: "xavier"
    }
    bias_filler {
      type: "constant"
      value: 0.1
    }
  }
  param: "dec_img_conv2_w"
  param: "dec_img_conv2_b"
}
layers {
  bottom: "ep_conv_5x5_1_352"
  top: "ep_conv_5x5_1_352"
  name: "relu_299"
  type: RELU
}
layers {
  bottom: "ep_conv_5x5_1_352"
  bottom: "mask3"
  top: "ep_unpool_2x2_2_353"
  name: "unpool_2x2_2_315"
  type: UNPOOLING
  unpooling_param {
    unpool: MAX
    kernel_size: 2
    stride: 2
  }
}
layers {
  bottom: "ep_unpool_2x2_2_353"
  top: "ep_t13_conv_5x5_1_425"
  name: "t13_conv_5x5_1_331"
  type: CONVOLUTION
  blobs_lr: 1
  blobs_lr: 2
  weight_decay: 1
  weight_decay: 0
  convolution_param {
    num_output: 3
    pad: 2
    kernel_size: 5
    stride: 1
    weight_filler {
      type: "xavier"
    }
    bias_filler {
      type: "constant"
      value: 0.1
    }
  }
  param: "dec_img_conv3_w"
  param: "dec_img_conv3_b"
}
layers {
  bottom: "ep_split_354"
  top: "ep_inner_product_355"
  name: "inner_product_347"
  type: INNER_PRODUCT
  blobs_lr: 1
  blobs_lr: 2
  weight_decay: 1
  weight_decay: 0
  inner_product_param {
    num_output: 8192
    weight_filler {
      type: "xavier"
    }
    bias_filler {
      type: "constant"
      value: 0.1
    }
  }
  param: "dec_mask_fc1_w"
  param: "dec_mask_fc1_b"
}
layers {
  bottom: "ep_inner_product_355"
  top: "ep_inner_product_355"
  name: "relu_363"
  type: RELU
}
layers {
  bottom: "ep_inner_product_355"
  top: "ep_folding_356"
  name: "folding_379"
  type: FOLDING
  folding_param {
    channels_folded: 128
    height_folded: 8
    width_folded: 8
  }
}
layers {
  bottom: "ep_folding_356"
  top: "ep_upsample_357"
  name: "upsample_395"
  type: UPSAMPLING
  upsampling_param {
    kernel_size: 2
  }
}
layers {
  bottom: "ep_upsample_357"
  top: "ep_conv_5x5_1_358"
  name: "conv_5x5_1_411"
  type: CONVOLUTION
  blobs_lr: 1
  blobs_lr: 2
  weight_decay: 1
  weight_decay: 0
  convolution_param {
    num_output: 64
    pad: 2
    kernel_size: 5
    stride: 1
    weight_filler {
      type: "xavier"
    }
    bias_filler {
      type: "constant"
      value: 0.1
    }
  }
  param: "dec_mask_conv1_w"
  param: "dec_mask_conv1_b"
}
layers {
  bottom: "ep_conv_5x5_1_358"
  top: "ep_conv_5x5_1_358"
  name: "relu_427"
  type: RELU
}
layers {
  bottom: "ep_conv_5x5_1_358"
  top: "ep_upsample_359"
  name: "upsample_443"
  type: UPSAMPLING
  upsampling_param {
    kernel_size: 2
  }
}
layers {
  bottom: "ep_upsample_359"
  top: "ep_conv_5x5_1_360"
  name: "conv_5x5_1_459"
  type: CONVOLUTION
  blobs_lr: 1
  blobs_lr: 2
  weight_decay: 1
  weight_decay: 0
  convolution_param {
    num_output: 32
    pad: 2
    kernel_size: 5
    stride: 1
    weight_filler {
      type: "xavier"
    }
    bias_filler {
      type: "constant"
      value: 0.1
    }
  }
  param: "dec_mask_conv2_w"
  param: "dec_mask_conv2_b"
}
layers {
  bottom: "ep_conv_5x5_1_360"
  top: "ep_conv_5x5_1_360"
  name: "relu_475"
  type: RELU
}
layers {
  bottom: "ep_conv_5x5_1_360"
  top: "ep_upsample_361"
  name: "upsample_491"
  type: UPSAMPLING
  upsampling_param {
    kernel_size: 2
  }
}
layers {
  bottom: "ep_upsample_361"
  top: "ep_t13_conv_5x5_1_441"
  name: "t13_conv_5x5_1_507"
  type: CONVOLUTION
  blobs_lr: 1
  blobs_lr: 2
  weight_decay: 1
  weight_decay: 0
  convolution_param {
    num_output: 1
    pad: 2
    kernel_size: 5
    stride: 1
    weight_filler {
      type: "xavier"
    }
    bias_filler {
      type: "constant"
      value: 0.1
    }
  }
  param: "dec_mask_conv3_w"
  param: "dec_mask_conv3_b"
}
layers {
  bottom: "ep_split_362"
  bottom: "rotations14"
  top: "ep_tensor_product_363"
  name: "tensor_product_28"
  type: TENSOR_PRODUCT
  blobs_lr: 1
  blobs_lr: 2
  weight_decay: 1
  weight_decay: 0
  inner_product_param {
    num_output: 512
    weight_filler {
      type: "xavier"
    }
    bias_filler {
      type: "constant"
      value: 0.1
    }
  }
  param: "tensor_view_w"
  param: "tensor_view_b"
}
layers {
  bottom: "ep_tensor_product_363"
  top: "ep_relu_364"
  name: "relu_44"
  type: RELU
}
layers {
  bottom: "ep_relu_364"
  top: "ep_split_366"
  top: "ep_split_387"
  name: "split_60"
  type: SPLIT
}
layers {
  bottom: "ep_split_365"
  bottom: "ep_split_366"
  top: "ep_concat_367"
  name: "concat_76"
  type: CONCAT
  concat_param {
    concat_dim: 1
  }
}
layers {
  bottom: "ep_concat_367"
  top: "ep_inner_product_368"
  name: "inner_product_92"
  type: INNER_PRODUCT
  blobs_lr: 1
  blobs_lr: 2
  weight_decay: 1
  weight_decay: 0
  inner_product_param {
    num_output: 1024
    weight_filler {
      type: "xavier"
    }
    bias_filler {
      type: "constant"
      value: 0.1
    }
  }
  param: "dec_fc1_w"
  param: "dec_fc1_b"
}
layers {
  bottom: "ep_inner_product_368"
  top: "ep_inner_product_368"
  name: "relu_108"
  type: RELU
}
layers {
  bottom: "ep_inner_product_368"
  top: "ep_inner_product_369"
  name: "inner_product_124"
  type: INNER_PRODUCT
  blobs_lr: 1
  blobs_lr: 2
  weight_decay: 1
  weight_decay: 0
  inner_product_param {
    num_output: 1024
    weight_filler {
      type: "xavier"
    }
    bias_filler {
      type: "constant"
      value: 0.1
    }
  }
  param: "dec_fc2_w"
  param: "dec_fc2_b"
}
layers {
  bottom: "ep_inner_product_369"
  top: "ep_relu_370"
  name: "relu_140"
  type: RELU
}
layers {
  bottom: "ep_relu_370"
  top: "ep_split_371"
  top: "ep_split_379"
  name: "split_156"
  type: SPLIT
}
layers {
  bottom: "ep_split_371"
  top: "ep_inner_product_372"
  name: "inner_product_172"
  type: INNER_PRODUCT
  blobs_lr: 1
  blobs_lr: 2
  weight_decay: 1
  weight_decay: 0
  inner_product_param {
    num_output: 16384
    weight_filler {
      type: "xavier"
    }
    bias_filler {
      type: "constant"
      value: 0.1
    }
  }
  param: "dec_img_fc1_w"
  param: "dec_img_fc1_b"
}
layers {
  bottom: "ep_inner_product_372"
  top: "ep_inner_product_372"
  name: "relu_188"
  type: RELU
}
layers {
  bottom: "ep_inner_product_372"
  top: "ep_folding_373"
  name: "folding_204"
  type: FOLDING
  folding_param {
    channels_folded: 256
    height_folded: 8
    width_folded: 8
  }
}
layers {
  bottom: "ep_folding_373"
  bottom: "mask1"
  top: "ep_unpool_2x2_2_374"
  name: "unpool_2x2_2_220"
  type: UNPOOLING
  unpooling_param {
    unpool: MAX
    kernel_size: 2
    stride: 2
  }
}
layers {
  bottom: "ep_unpool_2x2_2_374"
  top: "ep_conv_5x5_1_375"
  name: "conv_5x5_1_236"
  type: CONVOLUTION
  blobs_lr: 1
  blobs_lr: 2
  weight_decay: 1
  weight_decay: 0
  convolution_param {
    num_output: 128
    pad: 2
    kernel_size: 5
    stride: 1
    weight_filler {
      type: "xavier"
    }
    bias_filler {
      type: "constant"
      value: 0.1
    }
  }
  param: "dec_img_conv1_w"
  param: "dec_img_conv1_b"
}
layers {
  bottom: "ep_conv_5x5_1_375"
  top: "ep_conv_5x5_1_375"
  name: "relu_252"
  type: RELU
}
layers {
  bottom: "ep_conv_5x5_1_375"
  bottom: "mask2"
  top: "ep_unpool_2x2_2_376"
  name: "unpool_2x2_2_268"
  type: UNPOOLING
  unpooling_param {
    unpool: MAX
    kernel_size: 2
    stride: 2
  }
}
layers {
  bottom: "ep_unpool_2x2_2_376"
  top: "ep_conv_5x5_1_377"
  name: "conv_5x5_1_284"
  type: CONVOLUTION
  blobs_lr: 1
  blobs_lr: 2
  weight_decay: 1
  weight_decay: 0
  convolution_param {
    num_output: 64
    pad: 2
    kernel_size: 5
    stride: 1
    weight_filler {
      type: "xavier"
    }
    bias_filler {
      type: "constant"
      value: 0.1
    }
  }
  param: "dec_img_conv2_w"
  param: "dec_img_conv2_b"
}
layers {
  bottom: "ep_conv_5x5_1_377"
  top: "ep_conv_5x5_1_377"
  name: "relu_300"
  type: RELU
}
layers {
  bottom: "ep_conv_5x5_1_377"
  bottom: "mask3"
  top: "ep_unpool_2x2_2_378"
  name: "unpool_2x2_2_316"
  type: UNPOOLING
  unpooling_param {
    unpool: MAX
    kernel_size: 2
    stride: 2
  }
}
layers {
  bottom: "ep_unpool_2x2_2_378"
  top: "ep_t14_conv_5x5_1_426"
  name: "t14_conv_5x5_1_332"
  type: CONVOLUTION
  blobs_lr: 1
  blobs_lr: 2
  weight_decay: 1
  weight_decay: 0
  convolution_param {
    num_output: 3
    pad: 2
    kernel_size: 5
    stride: 1
    weight_filler {
      type: "xavier"
    }
    bias_filler {
      type: "constant"
      value: 0.1
    }
  }
  param: "dec_img_conv3_w"
  param: "dec_img_conv3_b"
}
layers {
  bottom: "ep_split_379"
  top: "ep_inner_product_380"
  name: "inner_product_348"
  type: INNER_PRODUCT
  blobs_lr: 1
  blobs_lr: 2
  weight_decay: 1
  weight_decay: 0
  inner_product_param {
    num_output: 8192
    weight_filler {
      type: "xavier"
    }
    bias_filler {
      type: "constant"
      value: 0.1
    }
  }
  param: "dec_mask_fc1_w"
  param: "dec_mask_fc1_b"
}
layers {
  bottom: "ep_inner_product_380"
  top: "ep_inner_product_380"
  name: "relu_364"
  type: RELU
}
layers {
  bottom: "ep_inner_product_380"
  top: "ep_folding_381"
  name: "folding_380"
  type: FOLDING
  folding_param {
    channels_folded: 128
    height_folded: 8
    width_folded: 8
  }
}
layers {
  bottom: "ep_folding_381"
  top: "ep_upsample_382"
  name: "upsample_396"
  type: UPSAMPLING
  upsampling_param {
    kernel_size: 2
  }
}
layers {
  bottom: "ep_upsample_382"
  top: "ep_conv_5x5_1_383"
  name: "conv_5x5_1_412"
  type: CONVOLUTION
  blobs_lr: 1
  blobs_lr: 2
  weight_decay: 1
  weight_decay: 0
  convolution_param {
    num_output: 64
    pad: 2
    kernel_size: 5
    stride: 1
    weight_filler {
      type: "xavier"
    }
    bias_filler {
      type: "constant"
      value: 0.1
    }
  }
  param: "dec_mask_conv1_w"
  param: "dec_mask_conv1_b"
}
layers {
  bottom: "ep_conv_5x5_1_383"
  top: "ep_conv_5x5_1_383"
  name: "relu_428"
  type: RELU
}
layers {
  bottom: "ep_conv_5x5_1_383"
  top: "ep_upsample_384"
  name: "upsample_444"
  type: UPSAMPLING
  upsampling_param {
    kernel_size: 2
  }
}
layers {
  bottom: "ep_upsample_384"
  top: "ep_conv_5x5_1_385"
  name: "conv_5x5_1_460"
  type: CONVOLUTION
  blobs_lr: 1
  blobs_lr: 2
  weight_decay: 1
  weight_decay: 0
  convolution_param {
    num_output: 32
    pad: 2
    kernel_size: 5
    stride: 1
    weight_filler {
      type: "xavier"
    }
    bias_filler {
      type: "constant"
      value: 0.1
    }
  }
  param: "dec_mask_conv2_w"
  param: "dec_mask_conv2_b"
}
layers {
  bottom: "ep_conv_5x5_1_385"
  top: "ep_conv_5x5_1_385"
  name: "relu_476"
  type: RELU
}
layers {
  bottom: "ep_conv_5x5_1_385"
  top: "ep_upsample_386"
  name: "upsample_492"
  type: UPSAMPLING
  upsampling_param {
    kernel_size: 2
  }
}
layers {
  bottom: "ep_upsample_386"
  top: "ep_t14_conv_5x5_1_442"
  name: "t14_conv_5x5_1_508"
  type: CONVOLUTION
  blobs_lr: 1
  blobs_lr: 2
  weight_decay: 1
  weight_decay: 0
  convolution_param {
    num_output: 1
    pad: 2
    kernel_size: 5
    stride: 1
    weight_filler {
      type: "xavier"
    }
    bias_filler {
      type: "constant"
      value: 0.1
    }
  }
  param: "dec_mask_conv3_w"
  param: "dec_mask_conv3_b"
}
layers {
  bottom: "ep_split_387"
  bottom: "rotations15"
  top: "ep_tensor_product_388"
  name: "tensor_product_29"
  type: TENSOR_PRODUCT
  blobs_lr: 1
  blobs_lr: 2
  weight_decay: 1
  weight_decay: 0
  inner_product_param {
    num_output: 512
    weight_filler {
      type: "xavier"
    }
    bias_filler {
      type: "constant"
      value: 0.1
    }
  }
  param: "tensor_view_w"
  param: "tensor_view_b"
}
layers {
  bottom: "ep_tensor_product_388"
  top: "ep_relu_389"
  name: "relu_45"
  type: RELU
}
layers {
  bottom: "ep_relu_389"
  top: "ep_split_391"
  name: "split_61"
  type: SPLIT
}
layers {
  bottom: "ep_split_390"
  bottom: "ep_split_391"
  top: "ep_concat_392"
  name: "concat_77"
  type: CONCAT
  concat_param {
    concat_dim: 1
  }
}
layers {
  bottom: "ep_concat_392"
  top: "ep_inner_product_393"
  name: "inner_product_93"
  type: INNER_PRODUCT
  blobs_lr: 1
  blobs_lr: 2
  weight_decay: 1
  weight_decay: 0
  inner_product_param {
    num_output: 1024
    weight_filler {
      type: "xavier"
    }
    bias_filler {
      type: "constant"
      value: 0.1
    }
  }
  param: "dec_fc1_w"
  param: "dec_fc1_b"
}
layers {
  bottom: "ep_inner_product_393"
  top: "ep_inner_product_393"
  name: "relu_109"
  type: RELU
}
layers {
  bottom: "ep_inner_product_393"
  top: "ep_inner_product_394"
  name: "inner_product_125"
  type: INNER_PRODUCT
  blobs_lr: 1
  blobs_lr: 2
  weight_decay: 1
  weight_decay: 0
  inner_product_param {
    num_output: 1024
    weight_filler {
      type: "xavier"
    }
    bias_filler {
      type: "constant"
      value: 0.1
    }
  }
  param: "dec_fc2_w"
  param: "dec_fc2_b"
}
layers {
  bottom: "ep_inner_product_394"
  top: "ep_relu_395"
  name: "relu_141"
  type: RELU
}
layers {
  bottom: "ep_relu_395"
  top: "ep_split_396"
  top: "ep_split_404"
  name: "split_157"
  type: SPLIT
}
layers {
  bottom: "ep_split_396"
  top: "ep_inner_product_397"
  name: "inner_product_173"
  type: INNER_PRODUCT
  blobs_lr: 1
  blobs_lr: 2
  weight_decay: 1
  weight_decay: 0
  inner_product_param {
    num_output: 16384
    weight_filler {
      type: "xavier"
    }
    bias_filler {
      type: "constant"
      value: 0.1
    }
  }
  param: "dec_img_fc1_w"
  param: "dec_img_fc1_b"
}
layers {
  bottom: "ep_inner_product_397"
  top: "ep_inner_product_397"
  name: "relu_189"
  type: RELU
}
layers {
  bottom: "ep_inner_product_397"
  top: "ep_folding_398"
  name: "folding_205"
  type: FOLDING
  folding_param {
    channels_folded: 256
    height_folded: 8
    width_folded: 8
  }
}
layers {
  bottom: "ep_folding_398"
  bottom: "mask1"
  top: "ep_unpool_2x2_2_399"
  name: "unpool_2x2_2_221"
  type: UNPOOLING
  unpooling_param {
    unpool: MAX
    kernel_size: 2
    stride: 2
  }
}
layers {
  bottom: "ep_unpool_2x2_2_399"
  top: "ep_conv_5x5_1_400"
  name: "conv_5x5_1_237"
  type: CONVOLUTION
  blobs_lr: 1
  blobs_lr: 2
  weight_decay: 1
  weight_decay: 0
  convolution_param {
    num_output: 128
    pad: 2
    kernel_size: 5
    stride: 1
    weight_filler {
      type: "xavier"
    }
    bias_filler {
      type: "constant"
      value: 0.1
    }
  }
  param: "dec_img_conv1_w"
  param: "dec_img_conv1_b"
}
layers {
  bottom: "ep_conv_5x5_1_400"
  top: "ep_conv_5x5_1_400"
  name: "relu_253"
  type: RELU
}
layers {
  bottom: "ep_conv_5x5_1_400"
  bottom: "mask2"
  top: "ep_unpool_2x2_2_401"
  name: "unpool_2x2_2_269"
  type: UNPOOLING
  unpooling_param {
    unpool: MAX
    kernel_size: 2
    stride: 2
  }
}
layers {
  bottom: "ep_unpool_2x2_2_401"
  top: "ep_conv_5x5_1_402"
  name: "conv_5x5_1_285"
  type: CONVOLUTION
  blobs_lr: 1
  blobs_lr: 2
  weight_decay: 1
  weight_decay: 0
  convolution_param {
    num_output: 64
    pad: 2
    kernel_size: 5
    stride: 1
    weight_filler {
      type: "xavier"
    }
    bias_filler {
      type: "constant"
      value: 0.1
    }
  }
  param: "dec_img_conv2_w"
  param: "dec_img_conv2_b"
}
layers {
  bottom: "ep_conv_5x5_1_402"
  top: "ep_conv_5x5_1_402"
  name: "relu_301"
  type: RELU
}
layers {
  bottom: "ep_conv_5x5_1_402"
  bottom: "mask3"
  top: "ep_unpool_2x2_2_403"
  name: "unpool_2x2_2_317"
  type: UNPOOLING
  unpooling_param {
    unpool: MAX
    kernel_size: 2
    stride: 2
  }
}
layers {
  bottom: "ep_unpool_2x2_2_403"
  top: "ep_t15_conv_5x5_1_427"
  name: "t15_conv_5x5_1_333"
  type: CONVOLUTION
  blobs_lr: 1
  blobs_lr: 2
  weight_decay: 1
  weight_decay: 0
  convolution_param {
    num_output: 3
    pad: 2
    kernel_size: 5
    stride: 1
    weight_filler {
      type: "xavier"
    }
    bias_filler {
      type: "constant"
      value: 0.1
    }
  }
  param: "dec_img_conv3_w"
  param: "dec_img_conv3_b"
}
layers {
  bottom: "ep_split_404"
  top: "ep_inner_product_405"
  name: "inner_product_349"
  type: INNER_PRODUCT
  blobs_lr: 1
  blobs_lr: 2
  weight_decay: 1
  weight_decay: 0
  inner_product_param {
    num_output: 8192
    weight_filler {
      type: "xavier"
    }
    bias_filler {
      type: "constant"
      value: 0.1
    }
  }
  param: "dec_mask_fc1_w"
  param: "dec_mask_fc1_b"
}
layers {
  bottom: "ep_inner_product_405"
  top: "ep_inner_product_405"
  name: "relu_365"
  type: RELU
}
layers {
  bottom: "ep_inner_product_405"
  top: "ep_folding_406"
  name: "folding_381"
  type: FOLDING
  folding_param {
    channels_folded: 128
    height_folded: 8
    width_folded: 8
  }
}
layers {
  bottom: "ep_folding_406"
  top: "ep_upsample_407"
  name: "upsample_397"
  type: UPSAMPLING
  upsampling_param {
    kernel_size: 2
  }
}
layers {
  bottom: "ep_upsample_407"
  top: "ep_conv_5x5_1_408"
  name: "conv_5x5_1_413"
  type: CONVOLUTION
  blobs_lr: 1
  blobs_lr: 2
  weight_decay: 1
  weight_decay: 0
  convolution_param {
    num_output: 64
    pad: 2
    kernel_size: 5
    stride: 1
    weight_filler {
      type: "xavier"
    }
    bias_filler {
      type: "constant"
      value: 0.1
    }
  }
  param: "dec_mask_conv1_w"
  param: "dec_mask_conv1_b"
}
layers {
  bottom: "ep_conv_5x5_1_408"
  top: "ep_conv_5x5_1_408"
  name: "relu_429"
  type: RELU
}
layers {
  bottom: "ep_conv_5x5_1_408"
  top: "ep_upsample_409"
  name: "upsample_445"
  type: UPSAMPLING
  upsampling_param {
    kernel_size: 2
  }
}
layers {
  bottom: "ep_upsample_409"
  top: "ep_conv_5x5_1_410"
  name: "conv_5x5_1_461"
  type: CONVOLUTION
  blobs_lr: 1
  blobs_lr: 2
  weight_decay: 1
  weight_decay: 0
  convolution_param {
    num_output: 32
    pad: 2
    kernel_size: 5
    stride: 1
    weight_filler {
      type: "xavier"
    }
    bias_filler {
      type: "constant"
      value: 0.1
    }
  }
  param: "dec_mask_conv2_w"
  param: "dec_mask_conv2_b"
}
layers {
  bottom: "ep_conv_5x5_1_410"
  top: "ep_conv_5x5_1_410"
  name: "relu_477"
  type: RELU
}
layers {
  bottom: "ep_conv_5x5_1_410"
  top: "ep_upsample_411"
  name: "upsample_493"
  type: UPSAMPLING
  upsampling_param {
    kernel_size: 2
  }
}
layers {
  bottom: "ep_upsample_411"
  top: "ep_t15_conv_5x5_1_443"
  name: "t15_conv_5x5_1_509"
  type: CONVOLUTION
  blobs_lr: 1
  blobs_lr: 2
  weight_decay: 1
  weight_decay: 0
  convolution_param {
    num_output: 1
    pad: 2
    kernel_size: 5
    stride: 1
    weight_filler {
      type: "xavier"
    }
    bias_filler {
      type: "constant"
      value: 0.1
    }
  }
  param: "dec_mask_conv3_w"
  param: "dec_mask_conv3_b"
}
layers {
  bottom: "ep_t0_conv_5x5_1_412"
  bottom: "ep_t1_conv_5x5_1_413"
  bottom: "ep_t2_conv_5x5_1_414"
  bottom: "ep_t3_conv_5x5_1_415"
  bottom: "ep_t4_conv_5x5_1_416"
  bottom: "ep_t5_conv_5x5_1_417"
  bottom: "ep_t6_conv_5x5_1_418"
  bottom: "ep_t7_conv_5x5_1_419"
  bottom: "ep_t8_conv_5x5_1_420"
  bottom: "ep_t9_conv_5x5_1_421"
  bottom: "ep_t10_conv_5x5_1_422"
  bottom: "ep_t11_conv_5x5_1_423"
  bottom: "ep_t12_conv_5x5_1_424"
  bottom: "ep_t13_conv_5x5_1_425"
  bottom: "ep_t14_conv_5x5_1_426"
  bottom: "ep_t15_conv_5x5_1_427"
  top: "images_concat"
  name: "concat_510"
  type: CONCAT
  concat_param {
    concat_dim: 1
  }
  loss_weight: 10.0
}
layers {
  bottom: "ep_t0_conv_5x5_1_428"
  bottom: "ep_t1_conv_5x5_1_429"
  bottom: "ep_t2_conv_5x5_1_430"
  bottom: "ep_t3_conv_5x5_1_431"
  bottom: "ep_t4_conv_5x5_1_432"
  bottom: "ep_t5_conv_5x5_1_433"
  bottom: "ep_t6_conv_5x5_1_434"
  bottom: "ep_t7_conv_5x5_1_435"
  bottom: "ep_t8_conv_5x5_1_436"
  bottom: "ep_t9_conv_5x5_1_437"
  bottom: "ep_t10_conv_5x5_1_438"
  bottom: "ep_t11_conv_5x5_1_439"
  bottom: "ep_t12_conv_5x5_1_440"
  bottom: "ep_t13_conv_5x5_1_441"
  bottom: "ep_t14_conv_5x5_1_442"
  bottom: "ep_t15_conv_5x5_1_443"
  top: "masks_concat"
  name: "concat_511"
  type: CONCAT
  concat_param {
    concat_dim: 1
  }
  loss_weight: 1.0
}
input: "images"
input: "rotations0"
input: "rotations1"
input: "rotations2"
input: "rotations3"
input: "rotations4"
input: "rotations5"
input: "rotations6"
input: "rotations7"
input: "rotations8"
input: "rotations9"
input: "rotations10"
input: "rotations11"
input: "rotations12"
input: "rotations13"
input: "rotations14"
input: "rotations15"
input_dim: 1
input_dim: 3
input_dim: 64
input_dim: 64
input_dim: 1
input_dim: 3
input_dim: 1
input_dim: 1
input_dim: 1
input_dim: 3
input_dim: 1
input_dim: 1
input_dim: 1
input_dim: 3
input_dim: 1
input_dim: 1
input_dim: 1
input_dim: 3
input_dim: 1
input_dim: 1
input_dim: 1
input_dim: 3
input_dim: 1
input_dim: 1
input_dim: 1
input_dim: 3
input_dim: 1
input_dim: 1
input_dim: 1
input_dim: 3
input_dim: 1
input_dim: 1
input_dim: 1
input_dim: 3
input_dim: 1
input_dim: 1
input_dim: 1
input_dim: 3
input_dim: 1
input_dim: 1
input_dim: 1
input_dim: 3
input_dim: 1
input_dim: 1
input_dim: 1
input_dim: 3
input_dim: 1
input_dim: 1
input_dim: 1
input_dim: 3
input_dim: 1
input_dim: 1
input_dim: 1
input_dim: 3
input_dim: 1
input_dim: 1
input_dim: 1
input_dim: 3
input_dim: 1
input_dim: 1
input_dim: 1
input_dim: 3
input_dim: 1
input_dim: 1
input_dim: 1
input_dim: 3
input_dim: 1
input_dim: 1
force_backward: true
